checkpoints/best_model.pth (torch, 57525 bytes, 24 tensors)

encoder.0.weight f4 [16, 3, 5]
00000000: d4e9 eebc 91fa 543e 873e 5abe 6950 57be
00000010: dc28 8a3c b047 473e b195 0bbb 2663 273e
00000020: 34e4 2ebe 2210 09be 9808 6d3e fcc1 6cbe
00000030: 1713 55be c209 323e 4c10 5fbb ee53 803e
00000040: 1f24 2c3e a559 1ebe ad15 7dbe 00e7 1cbe
00000050: af24 243e 4e8d 9bbc a6dd 3bbe f3eb 433e
00000060: f1f8 643e efae c93c c169 27bd 0e52 8d3c
00000070: ce1f 5bbe 3923 153c 3036 8a3d 8619 09bd
00000080: 3385 3dbe f700 25be c74a 993d 2196 09be
00000090: 6cc1 423e 3831 10be 0015 e4bd b341 243e
000000a0: 8570 0dbc f148 54be 64f5 063e ec4b 24bd
000000b0: ef2c 53be 4fc8 89bd a290 33be 7afe 883d
000000c0: fd6f 813e 2145 0b3e 361c b53d 8be5 6fbd
000000d0: 0cad 3cbe fb13 6fbc c29e 6a3e 9b77 303d
000000e0: 586b a93d 4739 4d3b ba14 0c3e 0aa4 b93d
000000f0: 0daa 6d3e da8c 4dbe 6b4a 6d3d 05ef f0bd
00000100: ce58 a93d 476e 52be 8171 4a3e 2cf9 2cbe
00000110: 5cd2 403e 4ff8 183e 5d02 04bd 9342 063e
00000120: 2af0 c2bd da94 dbbd d1f8 6fbe 71c4 12be
00000130: ceb0 413e fc48 173e cc34 89bd 9322 653e
00000140: 6bfa 803e 7c28 83be 91fc df3d b4cb 873c
00000150: e3c0 043e 71f7 843d 7f97 ea3d 10d1 873b
00000160: 5844 dfbd 8dbc 0b3d ca8a 0e3e 7f85 72be
00000170: ef6e c5bd 1d9b 05be d46a b43d 2076 40be
00000180: 51cd 0abe 2710 3abe edd6 183e f7eb b2bd
00000190: 0536 573e 853a 593d e6f6 4f3e 71a9 5fbe
000001a0: d69b 3c3e 8f72 80be 16ae a0bd 1dff 193e
000001b0: 3614 76be f419 2ebe ea0d 1d3e 23d5 333e
000001c0: ee9c 94bd 3d10 bd3d 8d6a 243c 968b 213d
000001d0: 45fe 3cbe 0e17 603e 6297 2bbe bdbf 50be
000001e0: b7ef 7cbe 1785 173d 0ac1 503d dd82 553e
000001f0: 4e78 183e e5f8 34be 47ab 523e 3481 023e
00000200: edc8 1dbe a619 62be 4d5d a83d 9369 bd3d
00000210: cc47 2fbe 0c07 b7bd 9779 07be f431 84be
00000220: 7e1b 853d d0cd 17be ae67 53bd 4ea5 85bd
00000230: 57fd d33c fb06 24be 1141 25be 9590 463e
00000240: 4e51 ef3c 24b6 10be 63a6 a8bd 7376 b93c
00000250: 0327 c23d 896d 3fbd 36cd f83d 66c0 703d
00000260: 0d4d 7b3e 59f7 67be 415c 3fbe 97cf 99bd
00000270: 48e9 2dbe 3b19 653c 3baf b7bd 041e 92bd
00000280: 8f0a 58be 51b8 193d 2d88 52bc c0da 7cbd
00000290: c06c 7a3e ead5 e23d 8556 1fbe a7b5 393e
000002a0: 86ce 53be 0d09 34be 5bd9 c8bd 494e 6d3e
000002b0: 3701 b6bc bc32 4b3e c4fb 4d3e 158e ab3b
000002c0: e68b 9e3c 145d 0c3e 4f4b 5abe 9c89 3a3e
000002d0: 673d 4cbe 6e5a 58be 842c 59bd d935 15be
000002e0: a3bd 723e cd68 93bb a1e9 1f3e 478d 2c3d
000002f0: abf0 3f3e ae50 a43d d9d8 c6bd 4b9a 35be
00000300: 18f4 57be 4b76 32be 52e8 ff3d 2a1c d1bd
00000310: ba19 b9bd 7cf5 83bd 9096 353e b9cc 3fbe
00000320: e1a8 e7bd 5b3d 543e 7aba 1e3e 26c0 76be
00000330: 0cfd 3f3e a60d 4fbd 4c15 7dbd d5f9 50be
00000340: 4d3b 3dbe 1be1 ecbc 636c 53be 0122 f7bd
00000350: 03bc 69bd a8a4 423e ba26 fdbd 9624 73bd
00000360: ddd8 f03c c1a6 4b3e e216 6b3e 4393 373d
00000370: 65ff 41be b12f f7bd ff0b 6e3e dbd5 67be
00000380: fbec 3d3d 5fa5 543e 1ca3 e1bd fe1a 183e
00000390: ee7f 353e ae12 123e ec78 ec3c 0bc6 0fbe
000003a0: 7759 6ebe 5591 4fbd 28a1 05be 8fde c2bd
000003b0: 9244 0dbe daa6 123e 8865 4cbe fb95 b13d
-0.029164232 0.20798708 -0.21312915 -0.21026768 0.016865186 0.1946094 -0.002129894 0.16346416
-0.1707924 -0.1338506 0.2314781 -0.23120874 -0.20808063 0.17386535 -0.0034036813 0.25064033
0.16810654 -0.15463884 -0.247153 -0.15322495 0.16029619 -0.018988278 -0.18346271 0.19132976
0.22360589 0.024619548 -0.04087234 0.01725104 -0.21398851 0.009102636 0.06748617 -0.033471607
-0.18507843 -0.1611365 0.07484966 -0.13436176 0.19019097 -0.14081275 -0.11136818 0.16040687
-0.008632784 -0.2073095 0.13179547 -0.040111467 -0.2062261 -0.06727659 -0.17535642 0.066891626
0.25280753 0.1360059 0.088432714 -0.05856852 -0.18425387 -0.014592166 0.22912124 0.043082815
0.08272427 0.0031314658 0.13679782 0.09064491 0.232094 -0.20073262 0.0579323 -0.11764339
0.08268891 -0.2054988 0.19769861 -0.16891927 0.18830246 0.14938472 -0.032228816 0.13111334
-0.09518464 -0.107217506 -0.2343476 -0.14332749 0.18915102 0.14773935 -0.06699523 0.2237647
0.25191054 -0.25616825 0.10936845 0.016576625 0.12964205 0.06492508 0.11454677 0.0041447952
-0.109017074 0.034115363 0.13920131 -0.23683737 -0.096402995 -0.13047452 0.08809438 -0.18795061
-0.13554884 -0.18170224 0.14925738 -0.08736413 0.210167 0.053034324 0.20309028 -0.2184198
0.18418822 -0.250874 -0.07845704 0.15038724 -0.24031147 -0.17002088 0.15337339 0.17561774
-0.072564945 0.09231613 0.010035169 0.03943976 -0.18456371 0.21883795 -0.16756967 -0.20385642
-0.24700819 0.03699216 0.050965346 0.20850702 0.14889643 -0.1767307 0.2057315 0.127446
-0.15408678 -0.22080097 0.08220921 0.09248652 -0.17117232 -0.08936891 -0.13229977 -0.2581936
0.06499384 -0.14824605 -0.05161255 -0.0652567 0.025877638 -0.16018288 -0.16138102 0.19391091
0.029213574 -0.14131981 -0.08234861 0.022639489 0.09480097 -0.04673532 0.12148516 0.058777235
0.24541111 -0.2265295 -0.18687536 -0.07510298 -0.16983521 0.013983066 -0.089689694 -0.07134631
-0.21097778 0.037529293 -0.01284985 -0.061732054 0.24455547 0.11075957 -0.15560348 0.18135701
-0.20684251 -0.17581578 -0.09807082 0.23174395 -0.022217376 0.19843572 0.20115572 0.0052354434
0.019353818 0.13707381 -0.2131779 0.18216556 -0.19945298 -0.21128246 -0.05302097 -0.14571323
0.23705153 -0.004498577 0.15616466 0.04212692 0.18744151 0.08023201 -0.09709329 -0.1773464
-0.21089208 -0.17427938 0.124954835 -0.1021045 -0.0903811 -0.06443307 0.17733216 -0.18730439
-0.11311508 0.2072653 0.15500823 -0.24096736 0.18748873 -0.050550126 -0.06178789 -0.20407803
-0.18479653 -0.028915932 -0.20646815 -0.120670326 -0.057064068 0.19008124 -0.12360902 -0.059361063
0.029400283 0.1988783 0.22957948 0.044818174 -0.18945082 -0.12069643 0.23246764 -0.22640173
0.04636858 0.20766209 -0.11017439 0.14854047 0.17724583 0.14264938 0.028866254 -0.14040391
-0.23276316 -0.05067571 -0.13049757 -0.09515106 -0.13795689 0.14321461 -0.19960606 0.08671185

encoder.0.bias f4 [16]
00000000: 20d7 9dbd 2f11 0c3e a596 fabd d99d 48be
00000010: 2bc8 4c3e 2aa2 01be 68ee 59be af8e 4f3d
00000020: ab3f b23d a48d 0b3e 4287 bbbd 7da1 823e
00000030: 6469 75be e550 4b3e da9a 6abe 0fd6 e23d
-0.077070475 0.1367843 -0.122357644 -0.19591464 0.19998233 -0.12659517 -0.21282351 0.050673183
0.0870355 0.1362825 -0.09156658 0.2551383 -0.23965985 0.19855078 -0.22910634 0.11075985

encoder.1.weight f4 [16]
00000000: 0000 803f 0000 803f 0000 803f 0000 803f
00000010: 0000 803f 0000 803f 0000 803f 0000 803f
00000020: 0000 803f 0000 803f 0000 803f 0000 803f
00000030: 0000 803f 0000 803f 0000 803f 0000 803f
1.0 1.0 1.0 1.0 1.0 1.0 1.0 1.0
1.0 1.0 1.0 1.0 1.0 1.0 1.0 1.0

encoder.1.bias f4 [16]
00000000: 0000 0000 0000 0000 0000 0000 0000 0000
00000010: 0000 0000 0000 0000 0000 0000 0000 0000
00000020: 0000 0000 0000 0000 0000 0000 0000 0000
00000030: 0000 0000 0000 0000 0000 0000 0000 0000
0.0 0.0 0.0 0.0 0.0 0.0 0.0 0.0
0.0 0.0 0.0 0.0 0.0 0.0 0.0 0.0

encoder.1.running_mean f4 [16]
00000000: 0000 0000 0000 0000 0000 0000 0000 0000
00000010: 0000 0000 0000 0000 0000 0000 0000 0000
00000020: 0000 0000 0000 0000 0000 0000 0000 0000
00000030: 0000 0000 0000 0000 0000 0000 0000 0000
0.0 0.0 0.0 0.0 0.0 0.0 0.0 0.0
0.0 0.0 0.0 0.0 0.0 0.0 0.0 0.0

encoder.1.running_var f4 [16]
00000000: 0000 803f 0000 803f 0000 803f 0000 803f
00000010: 0000 803f 0000 803f 0000 803f 0000 803f
00000020: 0000 803f 0000 803f 0000 803f 0000 803f
00000030: 0000 803f 0000 803f 0000 803f 0000 803f
1.0 1.0 1.0 1.0 1.0 1.0 1.0 1.0
1.0 1.0 1.0 1.0 1.0 1.0 1.0 1.0

encoder.3.weight f4 [32, 16, 5]
00000000: b8ed be3d 63ba 8b3d d980 163d f7b1 dfbd
00000010: 6f8e 6bbd de29 183d 329a 2abd e330 c839
00000020: b1b4 49bd e53f a4bd 4907 1a3d 7882 b9bd
00000030: 54ff 98bc 6263 7fbd d04f 88bd c857 12bd
00000040: 8025 13bd 228d f93c 52bf 97bc 264b 963d
00000050: 1855 083d c071 5f3b 41c5 893d 6442 863d
00000060: 2a3b c6bd 0391 9a3a 02f4 7abd d9b2 d5bd
00000070: a3cc b03d 2eb2 b43d 4084 b03b 03b1 bfbd
00000080: a09a 993c 9882 0d3d 75e1 60bd 4c0d a1bd
00000090: 912f 1d3d d478 a3bd e31f ad3d ce5b 81bd
000000a0: f557 263c c780 953d 9554 1b3d c71a db3d
000000b0: d7dc 6cbd 6a4c 363c 6b4f b1bd e91f aabd
000000c0: 6787 52bd f21a a83d af34 833d 1814 dcbd
000000d0: 4092 9fbd 9dda 26bd 0ce3 d4bd 598b d9bd
000000e0: ed51 573c 8425 15bd c275 de3d 5a00 473d
000000f0: ffbf b83d 4148 dfbd b944 883d 47f1 9cbc
00000100: 903e d7bd e839 78bd 862d d2bc 4ba6 ac3d
00000110: dc27 b83c 346f 40bc ec70 d23d f518 83bd
00000120: c3e0 723d 3973 da3c 0944 97bd 592f b03d
00000130: 7560 19ba bdc5 a0bb 2d70 72bd d668 523d
00000140: 2274 d93d 4013 cdbd 8194 5f3d a533 3abd
00000150: 6524 e3bd 6ad4 403d 694b 7cbd 4156 3d3d
00000160: 15fa c9bc 60b4 91bd fea6 7cbc 04e7 5ebd
00000170: 8d2f c3bd b5d1 993d 58b3 ccbd de7c 64bd
00000180: 7d91 ab3d be92 a83c c717 e1bc a4f3 33bc
00000190: 6f27 5abd 4e26 113d 5830 c4bd 8cfd babd
000001a0: 569f 13b9 3a0b 5f3c bb29 8e3d b8b3 52bc
000001b0: 73eb ffba c2a0 953d 1644 18bc c206 91bd
000001c0: 0de2 9b3d 6df2 8b3d d9ee 2cbd 1e32 e6bb
000001d0: 9868 d23d 9891 853d 02c6 1b3d 88c2 96b9
000001e0: 5d2b 363d bc42 993d 8a07 85bb f6e2 18bd
000001f0: a6bf aa3d ca56 6e3d 09a3 27bd 60cf 8ebd
00000200: 2eaa cf3c b906 833d dd53 983d de08 903d
00000210: 1d88 053d 9508 373b 859d a63d e723 8a3d
00000220: 1b8b 433d 5d92 5dbd 2f69 6f3d ae2f 87bd
00000230: c285 9bbd 09a3 183d 4cee cfbc 44d3 e4bd
00000240: 9cf7 953d dea3 78bd 677e 823d 50f5 a23c
00000250: 41df be3c b72b 38bd e612 e8bc 20b0 993d
00000260: ec82 18bd d01c 62bd e3d7 d03d 5c44 1b3d
00000270: 20fb 5e3d 4e8b 2ebd 662f 253b 4eef c93d
00000280: e3f1 40bd 41b2 093d c6cc 42bd f369 a5bd
00000290: e874 123d 8e80 d7bd 21cc ba3c 9180 94bd
000002a0: 3f6f a9bc dada 84bd 47f5 db3c 0393 9fbd
000002b0: 1acd 733d c967 ab3d a410 d03d 8be6 8c3d
000002c0: 89e5 f53c 88a6 89bb 0471 fbbc 0eb2 a9bd
000002d0: e5ed bb3a 265e bd3c 49ee 2a3d b4a5 b93d
000002e0: e89c 943b 40a6 983c 58ca 0ebb eb3a 3dbd
000002f0: dbe9 423c 306a 803d 0644 e43d e8da 9b3d
00000300: cca5 43bd 2f42 c9bd af17 62bd 235c 97bd
00000310: a79c 66bd fd5c 17bd 7432 c13d 7617 a33d
00000320: 0e56 f2bc bf5c 49bd aff6 313d 0064 773d
00000330: 5ad3 4ebc 23f9 80bd d9ec 7f3c 434a c8bd
00000340: fc97 7ebd e5a1 033d e7fb 4b3c db75 b1bc
00000350: 2b5e c83c 714b 573c 1f1e c9bd 8934 863d
00000360: a605 c4bd d8df e23d f14a 883d 8625 8abd
00000370: 97de 583d f2c0 7c3d ad04 5bbd 553a 5d3d
00000380: 5d3d c93d 8194 dbbd 570c a03c 19f1 333d
00000390: 986c 13bd 8ca8 04bd bb9f a3bd b820 7e3d
000003a0: ca86 ccbc 54cd e5bc bf38 a83d ede3 ce3d
000003b0: 8d77 dc3d e6b5 86bd 63be 8a3d b452 87bc
000003c0: 943f d4bd e2ca b0bd cb71 c53d ed4a d0bd
000003d0: 6577 b43d 67f0 9f3d 9e04 91bd 11e6 223d
000003e0: 4dc5 e0bd 4402 cc3d 69af 81bd 32c9 ce3d
000003f0: 01a7 73bd d506 643d 4d2c 89bc 4b4e a2bd
0.09322685 0.0682266 0.036743972 -0.10922616 -0.057508882 0.037149303 -0.04165096 0.00038183396
-0.049244586 -0.080199994 0.037604604 -0.09058088 -0.018676437 -0.06235064 -0.06655848 -0.035728246
-0.035924435 0.030462805 -0.018523846 0.07338552 0.033284277 0.00340949 0.06727076 0.06555632
-0.096792534 0.0011792484 -0.06126786 -0.10434503 0.08632781 0.088230476 0.005386859 -0.09359934
0.018750489 0.034548372 -0.054902513 -0.07863864 0.03837544 -0.079820305 0.084533475 -0.063163385
0.0101528065 0.07299953 0.03792246 0.10698467 -0.057827797 0.011126617 -0.08657726 -0.08306868
-0.05139866 0.082082644 0.06406533 -0.1074602 -0.07791567 -0.04073583 -0.10394868 -0.106222816
0.013142091 -0.03641273 0.10862304 0.04858432 0.09020995 -0.10902453 0.06653733 -0.019158019
-0.1050998 -0.0606021 -0.025656473 0.08430155 0.022479944 -0.011745263 0.102754444 -0.064012446
0.05929638 0.02666627 -0.073860236 0.08602781 -0.000585086 -0.0049063847 -0.05918901 0.05136951
0.10617854 -0.10013437 0.054584984 -0.04545941 -0.11090926 0.047077574 -0.061595354 0.046224836
-0.024655381 -0.07114482 -0.015420673 -0.054419532 -0.09530554 0.075107016 -0.099951446 -0.055783145
0.08377359 0.020577785 -0.027477158 -0.010983381 -0.053260263 0.03543692 -0.09579533 -0.091303915
-0.0001407837 0.013613516 0.06941553 -0.012860231 -0.0019525125 0.07306053 -0.009293577 -0.07081367
0.07611475 0.068333484 -0.04221997 -0.0070250174 0.10273856 0.065219104 0.03803063 -0.00028755167
0.04447495 0.07483432 -0.0040597366 -0.03732582 0.08337335 0.058188237 -0.040926967 -0.069731474
0.025349703 0.063977666 0.07437871 0.07032941 0.03260051 0.00279287 0.08135513 0.06745129
0.047740083 -0.05409466 0.05844992 -0.06600891 -0.07593872 0.037264857 -0.025382183 -0.11173108
0.07322618 -0.06070315 0.063717656 0.019892365 0.023299815 -0.044963565 -0.028329324 0.07504296
-0.03723423 -0.05520326 0.10197427 0.03790699 0.05443871 -0.04261332 0.0025205254 0.09860097
-0.04710568 0.03361726 -0.04755857 -0.08076849 0.03575602 -0.10522567 0.022802414 -0.072510846
-0.02068293 -0.06487055 0.026850356 -0.07791712 0.059521772 0.08369405 0.10159424 0.0687991
0.030016677 -0.0042007603 -0.030693538 -0.08285914 0.0014337866 0.023116183 0.041731153 0.090648085
0.0045353062 0.018633962 -0.0021788087 -0.046198767 0.011896576 0.06270254 0.11145787 0.076101124
-0.047765538 -0.09827077 -0.055198368 -0.073906206 -0.05630174 -0.036953915 0.09433451 0.07963459
-0.02958205 -0.049160715 0.043448146 0.0603981 -0.012623632 -0.06297519 0.015620434 -0.09779789
-0.062156662 0.032136817 0.012450195 -0.021662643 0.024458965 0.013140545 -0.09820198 0.06552989
-0.0957139 0.11077851 0.06654919 -0.06745438 0.052946653 0.061707444 -0.053471256 0.054010708
0.09826157 -0.10721684 0.019537134 0.0439311 -0.035992235 -0.0323873 -0.079894505 0.06204292
-0.024966616 -0.02805201 0.082139485 0.10102067 0.1076499 -0.06577663 0.06774595 -0.016518928
-0.10363689 -0.08632447 0.09640845 -0.10170541 0.08811835 0.07809525 -0.07080959 0.03977019
-0.10975132 0.0996137 -0.06332285 0.10096969 -0.05948544 0.055670578 -0.016744757 -0.079250894

encoder.3.bias f4 [32]
00000000: a94c 13bd 7474 cdbc e2fe babd 1e7e 1bbd
00000010: 453f 5f3d 9526 3d3d 6003 70bd 54be cc3d
00000020: 8727 983d 12cb f93b 97f2 98bd b119 933d
00000030: 4604 973b b0fa a6bb 7b37 2ebd 27db efbc
00000040: 1dfb 8e3d 87bb aebd 4c45 d93d 3096 3cbd
00000050: f7b7 713d 2abc 473c c77a 39bd ef25 ccbd
00000060: 5d85 4b3d 7354 c13d 2604 c9bd d1f3 833d
00000070: 234f 96bd 3f62 553c de46 653d e514 50bc
-0.03596178 -0.025079943 -0.09130646 -0.03796207 0.054503698 0.046179373 -0.05859697 0.0999724
0.07429414 0.007623085 -0.07468145 0.071826346 0.0046086637 -0.0050958022 -0.04253338 -0.029279305
0.0698149 -0.08531862 0.106089205 -0.046041667 0.059013333 0.012190858 -0.045283105 -0.09968173
0.049687732 0.094399355 -0.098152444 0.06442989 -0.07339313 0.013023912 0.055975787 -0.012700294

encoder.4.weight f4 [32]
00000000: 0000 803f 0000 803f 0000 803f 0000 803f
00000010: 0000 803f 0000 803f 0000 803f 0000 803f
00000020: 0000 803f 0000 803f 0000 803f 0000 803f
00000030: 0000 803f 0000 803f 0000 803f 0000 803f
00000040: 0000 803f 0000 803f 0000 803f 0000 803f
00000050: 0000 803f 0000 803f 0000 803f 0000 803f
00000060: 0000 803f 0000 803f 0000 803f 0000 803f
00000070: 0000 803f 0000 803f 0000 803f 0000 803f
1.0 1.0 1.0 1.0 1.0 1.0 1.0 1.0
1.0 1.0 1.0 1.0 1.0 1.0 1.0 1.0
1.0 1.0 1.0 1.0 1.0 1.0 1.0 1.0
1.0 1.0 1.0 1.0 1.0 1.0 1.0 1.0

encoder.4.bias f4 [32]
00000000: 0000 0000 0000 0000 0000 0000 0000 0000
00000010: 0000 0000 0000 0000 0000 0000 0000 0000
00000020: 0000 0000 0000 0000 0000 0000 0000 0000
00000030: 0000 0000 0000 0000 0000 0000 0000 0000
00000040: 0000 0000 0000 0000 0000 0000 0000 0000
00000050: 0000 0000 0000 0000 0000 0000 0000 0000
00000060: 0000 0000 0000 0000 0000 0000 0000 0000
00000070: 0000 0000 0000 0000 0000 0000 0000 0000
0.0 0.0 0.0 0.0 0.0 0.0 0.0 0.0
0.0 0.0 0.0 0.0 0.0 0.0 0.0 0.0
0.0 0.0 0.0 0.0 0.0 0.0 0.0 0.0
0.0 0.0 0.0 0.0 0.0 0.0 0.0 0.0

encoder.4.running_mean f4 [32]
00000000: 0000 0000 0000 0000 0000 0000 0000 0000
00000010: 0000 0000 0000 0000 0000 0000 0000 0000
00000020: 0000 0000 0000 0000 0000 0000 0000 0000
00000030: 0000 0000 0000 0000 0000 0000 0000 0000
00000040: 0000 0000 0000 0000 0000 0000 0000 0000
00000050: 0000 0000 0000 0000 0000 0000 0000 0000
00000060: 0000 0000 0000 0000 0000 0000 0000 0000
00000070: 0000 0000 0000 0000 0000 0000 0000 0000
0.0 0.0 0.0 0.0 0.0 0.0 0.0 0.0
0.0 0.0 0.0 0.0 0.0 0.0 0.0 0.0
0.0 0.0 0.0 0.0 0.0 0.0 0.0 0.0
0.0 0.0 0.0 0.0 0.0 0.0 0.0 0.0

encoder.4.running_var f4 [32]
00000000: 0000 803f 0000 803f 0000 803f 0000 803f
00000010: 0000 803f 0000 803f 0000 803f 0000 803f
00000020: 0000 803f 0000 803f 0000 803f 0000 803f
00000030: 0000 803f 0000 803f 0000 803f 0000 803f
00000040: 0000 803f 0000 803f 0000 803f 0000 803f
00000050: 0000 803f 0000 803f 0000 803f 0000 803f
00000060: 0000 803f 0000 803f 0000 803f 0000 803f
00000070: 0000 803f 0000 803f 0000 803f 0000 803f
1.0 1.0 1.0 1.0 1.0 1.0 1.0 1.0
1.0 1.0 1.0 1.0 1.0 1.0 1.0 1.0
1.0 1.0 1.0 1.0 1.0 1.0 1.0 1.0
1.0 1.0 1.0 1.0 1.0 1.0 1.0 1.0

encoder.6.weight f4 [32, 32, 3]
00000000: 9a45 533d 1398 75bc 73bc fabc 5118 92bc
00000010: c3bd 5fbd 9b69 7cbd 392f 2bbd 10d5 9bbd
00000020: 4b80 493d a7bb 85bc 21a3 93bd ec62 8a3c
00000030: 36ad 833d 861c b73c 2b00 5fbc f72d fbbb
00000040: 04b5 c83d 777a 8c3c 085d 8f3d d8cc 7d3d
00000050: 0be7 5bbc d04a 71bd 2219 abbd 3aad 71bd
00000060: 8bb3 6c3d ae9b 81bd 183f b8bc 0d9f a73d
00000070: cdaa 893c b6f3 c53c 4b64 7e3d b261 aebc
00000080: 40ff 14bd 4b8f 813d f747 203d f43b bc3d
00000090: 0ac0 863d c42c cbbd a088 96bc b920 bc3d
000000a0: fd8e edbc 72e4 bbbd 13b3 d03c 7980 113d
000000b0: 82b3 27bd 058e b93d 4643 7a3c f820 ac3c
000000c0: 95a7 b63d d301 1f3b bbe2 16bd f7e9 f13c
000000d0: 201c 88bd 4d39 9e3d 7422 02bd eb7a a53d
000000e0: 4cbd 2ebd 5a88 6ebb ac61 eebb 27fd 8fbd
000000f0: 167c 08bc 4768 8bbd 7175 b93b c110 9e3b
00000100: 6e2a 933c dde5 bb3d 8e83 2f3c f596 78bd
00000110: b7dc c0bd 27d3 b0bd 957c 243d b2a0 65bb
00000120: d5cd c03c e76d e1bc 7e22 82bd 1d21 803d
00000130: 1d9e c4bd d3a0 c0bc 5204 543d ed6d c4bd
00000140: 3d91 903c 2537 bebd b86a 0e3d 064b c4bd
00000150: 1b31 913d fd77 08bd 4607 a1bd c9a2 d33c
00000160: de5c b1bb 27d3 8e3d 8f5f 3fbd df57 b83c
00000170: 5d4b 95bc f90c b03d 56b9 853d 290e d23b
00000180: 3d36 a9bd 3d55 b33d 759c 143b 5f70 c23d
00000190: 601b 813c f673 b9bd 7024 bb3d 5040 9f3d
000001a0: 9af4 3c3d 010c 69bd abb2 933d 297c 313d
000001b0: 4b04 a7bd 4c97 55bd 79d9 55bd 5b9c 8d3d
000001c0: d30f a23a 6d88 943c 254a 78bd f064 093c
000001d0: c5b5 cfbd d964 9a3d a370 9e3d e851 7a3d
000001e0: 308b f6bc 9ed2 20bc 2b38 653d b1b3 bbbc
000001f0: 06da 423d 0f36 303d 5432 29bc f3d3 833d
00000200: eba5 b3bd 891e 6f3d 53a3 373c a78a a2bd
00000210: e6b5 453d 23c7 bb3d ee3d 083c 95ed 943d
00000220: 62d3 3b3c c464 43bd 9220 29bb deb0 c63d
00000230: 8fd5 1d3d d675 3d3c 116a 13bc 5d76 13bc
00000240: ad56 873d 0fb2 e9bc 7ac3 28bd 4331 423c
00000250: b3de ffbc d105 84bd b7ee b9bd bca5 b0bd
00000260: 1dc2 673b 387f 9c3c e03b bcbd a466 ba3c
00000270: aa51 cd3c fe6f abbd 8bea 873d abea 643c
00000280: 82e4 a73d c900 50bd 7584 97bd d6b6 79bd
00000290: 5554 b33d 1d6c 9abd 1445 8dbd 959a 86bc
000002a0: 7161 cc3d 2e34 cbbd 1740 21bd 67b6 63bd
000002b0: 28c8 c43c 38aa 83bd 8c65 893d 4c38 e03c
000002c0: 992b c23d 5512 a0b9 e15f 59bd a13a b63d
000002d0: 1b29 b73c fcd8 a73d 353e 96bd 2c9c 15bc
000002e0: 4ee5 013d fa9a 8a3d 5131 06bd cb59 b1bd
000002f0: 90a3 2abd 4f8e cd3d c9b0 99bd 43a4 67bd
00000300: 3e2f 0dbc 2fa9 513d 3788 0d3d 2252 d2bc
00000310: a46c a4bd 5597 843d ca92 813c 7994 893c
00000320: 2736 ea3c a03c b43d 79b4 7fbc 8ce0 83bd
00000330: 81be ac3c b87a 3fbd 2cac ddbc 7bc7 6d3d
00000340: 7df5 ecbc 032f 49bd a686 f5bc 8510 a03c
00000350: 7b25 a5bb 3dd1 97ba d71c cfbd ce80 9abd
00000360: 1d01 15bd 70c1 623d 96e7 af3d b5e7 cdbd
00000370: 723a 8bbd a94c ab3d b6ca 113d a7cb 283b
00000380: fb8a 1c3c 9aa6 2e3d 241b a2bd 5203 233d
00000390: 0664 ad3b a660 063d 8bbd af3d a2f9 c13d
000003a0: b6bd aebd 3128 55bd 4e30 c13d 8218 a93b
000003b0: 22bf 5d3b 4995 86bd 2659 5c3d 2d27 aa3c
000003c0: c8f1 ac3d 0ce0 afbd 18f2 8d3d 74db 54bc
000003d0: b697 8b3b 3b91 bd3d 7ddc 063d 8c15 ac3d
000003e0: a477 5b3d 4846 20bc 374b b83d 6fd8 523d
000003f0: 5e01 643d 07af 11bd 6372 b93d ad7d 173d
0.05158005 -0.014989871 -0.030607438 -0.01783386 -0.05462433 -0.06162415 -0.041793082 -0.07608998
0.049194615 -0.016324831 -0.07208849 0.016892873 0.06429522 0.022352468 -0.01361088 -0.0076653915
0.09800151 0.01714824 0.07000166 0.061962932 -0.013421784 -0.058909237 -0.08354403 -0.059003092
0.057788413 -0.06328522 -0.022491023 0.081846334 0.016805077 0.024164062 0.062107366 -0.02128682
-0.036376238 0.06326159 0.03913113 0.09191123 0.06579597 -0.09920648 -0.018375695 0.09185929
-0.028998846 -0.09174432 0.025476014 0.03552291 -0.040942676 0.09060291 0.015274828 0.021011814
0.089186825 0.0024262562 -0.03683732 0.029530508 -0.066459894 0.07725773 -0.03177114 0.08080085
-0.042660996 -0.003639719 -0.007274827 -0.07030707 -0.008330366 -0.06806999 0.005659752 0.0048237746
0.017964568 0.09174702 0.010712517 -0.06069084 -0.09417098 -0.08634024 0.040157873 -0.0035038409
0.023535648 -0.027518226 -0.06354235 0.06256316 -0.0960047 -0.023514187 0.051761933 -0.09591279
0.01764738 -0.09287862 0.034769744 -0.09584622 0.07089444 -0.033317555 -0.078627154 0.025834458
-0.005412682 0.06973868 -0.04672199 0.022502838 -0.018224413 0.08596224 0.06529491 0.0064103794
-0.08262298 0.08756492 0.0022676263 0.09494089 0.015760124 -0.09055321 0.09137809 0.077759385
0.046131708 -0.056896213 0.072118126 0.0433313 -0.08155116 -0.05214624 -0.05220935 0.06914588
0.0012364335 0.01813146 -0.060617585 0.008385882 -0.10142092 0.075387664 0.077363275 0.061113268
-0.030095667 -0.00981584 0.05596177 -0.022912832 0.047571205 0.043020304 -0.010326941 0.064369105
-0.08771881 0.05837873 0.011208373 -0.07936602 0.048269175 0.09168842 0.008315546 0.07271878
0.011463972 -0.04770352 -0.0025806767 0.097017035 0.038533743 0.011563739 -0.008997456 -0.009000388
0.06608329 -0.028527288 -0.041202046 0.011852565 -0.031234121 -0.06446422 -0.09078734 -0.08625361
0.0035363503 0.019103631 -0.09191108 0.022754021 0.025063355 -0.0837097 0.066365324 0.013971965
0.08197881 -0.050782 -0.07398311 -0.06096538 0.087563194 -0.07540152 -0.06897941 -0.016431132
0.09979523 -0.09922062 -0.03936776 -0.055593874 0.024021223 -0.06428951 0.06708822 0.027370594
0.09480972 -0.00030531237 -0.053069953 0.08897901 0.022358468 0.08195683 -0.07336084 -0.009131473
0.031712823 0.06767841 -0.032761876 -0.08659705 -0.04165989 0.10036909 -0.07504422 -0.056553137
-0.00861722 0.051186737 0.034553733 -0.02567393 -0.08028534 0.06474177 0.015817065 0.01679443
0.028590275 0.08800626 -0.015606993 -0.06439313 0.021086933 -0.046747893 -0.027059637 0.058051568
-0.028925652 -0.0491171 -0.029971432 0.019539127 -0.0050398684 -0.0011582744 -0.10112923 -0.07544099
-0.036378015 0.055360258 0.085890934 -0.1005396 -0.06798257 0.08364231 0.03559371 0.0025756152
0.00955462 0.042639352 -0.07915333 0.03979809 0.0052914647 0.032807015 0.08581074 0.09471442
-0.08532278 -0.052040283 0.094330415 0.0051603923 0.0033835848 -0.06571443 0.053795956 0.020770634
0.084445536 -0.085876554 0.06930941 -0.012991775 0.0042600287 0.09256216 0.032925118 0.08402547
0.053580895 -0.009782381 0.08998721 0.05147594 0.055665366 -0.03556731 0.09055021 0.03698509

encoder.6.bias f4 [32]
00000000: 434f 2abd 2c5b 47bc db6f cd3d 0a66 a13d
00000010: 3e84 a1bd 0f88 afbd c865 f7bc b98e 0dbc
00000020: 250e cfbd 5ecc b2bd acd7 b1bd a101 463d
00000030: 245d 063d 831f 84bd 4992 033d 0873 2f3d
00000040: 8c91 58bc 05b9 863d 70e9 9c3d b139 a1bd
00000050: bca9 cc3d b7f5 7bbd f379 3c3c 6bb6 c83d
00000060: 336f 8f3d 23d9 36bb 3a35 1b3d 3449 b73d
00000070: 807c cebd 712a 183c 0d4e b73d 4370 78bd
-0.041579496 -0.012167733 0.100311 0.078807905 -0.07886551 -0.08570873 -0.0301999 -0.008639985
-0.1011012 -0.08730386 -0.08683714 0.048341397 0.03280367 -0.06451323 0.03212193 0.04283431
-0.013218295 0.065782584 0.07661712 -0.07872332 0.09993312 -0.06151363 0.011503684 0.098004185
0.070036314 -0.002790042 0.037892558 0.08949509 -0.1008234 0.009287463 0.08950434 -0.060653936

decoder.0.weight f4 [32, 32, 3]
00000000: 8049 8c3c b4d8 9b3d 825a 913c cc52 c0bc
00000010: 02a6 b53d 24aa 97bd 9a21 73bd 11e3 a8bd
00000020: 158a 70bc 0bee 783d eb21 b6bd e5c8 9e3d
00000030: dfd2 173c 6ff0 523d e96a c4bd 4ade 09bd
00000040: b9d4 b7bd d109 a4bd 0b2b bcbd 8814 f03c
00000050: 2a8f 783d 7116 7a3d b684 63bd 0cef 70bd
00000060: 78d4 bd3d ab92 acbd 5dbc 613d df62 bbbd
00000070: 68a1 223d 3f6f 0a3d 5e53 b33c 20e5 183d
00000080: 11e9 96bd b37f 30bb 078a 24bd 36b6 e2bb
00000090: ca15 6e3d 38c7 82bd 4e09 c0bd e193 553c
000000a0: 7333 fc3c ee15 b2bc f732 813d 6db6 a33d
000000b0: 43c1 3d3c 7a9b ba3d 4fc1 6cbd 7403 1d3d
000000c0: 255b 363d d94d ae3b dde1 a6bd 5002 e73c
000000d0: 2096 c33c 40c9 25bd c47c a4bd 35a7 9a3b
000000e0: e984 523d 442a 203c 01a8 65bd 95a4 a63d
000000f0: 18c7 053d 061d 403d 9a3c c3bd 1457 3dbd
00000100: 09c4 6d3c 61ee 683c bedf 9fbd 844d cbbd
00000110: b9b6 303d 36a5 dbbc 2784 af3d 13b4 2a3c
00000120: d2af 55bd bd11 c2bd 550e 74bd c875 1b3d
00000130: 6b31 b9bd 1c23 b73c 7189 dfbc 85eb abbd
00000140: fa1b a03c 8d67 46bc 667f adbd d02e 10bd
00000150: 8faf 8e3d 44a8 d03d 98dc 7fbd e597 08bc
00000160: 02a9 553d dfc1 1e3d 4bed bebd e76e b7bd
00000170: 1a78 c03d c49d c3bd cb87 60bd ca96 debb
00000180: 3e2b 42bc 2c23 9e3d 727a 2eba b520 813c
00000190: eb9b 42bd 3888 623d b3f9 8c3d 37b1 2ebd
000001a0: b6e1 c83d 2124 a23d 5f85 5f3d 11c0 09bd
000001b0: 3153 97bb b55f 8a3d b973 38bd fbf4 503b
000001c0: 4257 983d bd33 c7bd 60e3 bebc 97d3 d53c
000001d0: 520d 28bd 9ab6 a9bc b911 c5bd 55d1 ae3d
000001e0: 0e26 c5bc 22dd 1f3d add1 a63d 5161 c93c
000001f0: 3e58 0abd 13f3 093d c1bb a03c a525 a5bd
00000200: 8b65 b83d 00ae b8bd e0e9 80bb ddb7 3b3d
00000210: 62e3 b23d 0e04 b73d 277c 9dbc dab4 c93c
00000220: c08f 663d 9dcf aebd 5084 9d3d 4097 8bbd
00000230: b66f ce3d 41e2 bdbc 204c aebd 5623 25bd
00000240: b7d5 173d 615a c6bd c82d c7bd 8879 c43d
00000250: b93f 13bd 5edd 183d 3a1a ae3d b452 f4bc
00000260: 7cea aabd f3e3 59bd 0a87 29bc b25e 883d
00000270: 86b8 cbbc 0943 b53d 9c04 50bd 2da2 9c3c
00000280: a8b3 a23d ba58 863d 18a1 823d 808a 98bd
00000290: 0c2f b33d d741 a1bd 17ad 953d 5bac bcbd
000002a0: c74d 923d 6c00 a9bc c059 573d 3db9 d4bc
000002b0: 4803 b1bd b144 a7bd fdd5 15bb 9250 8e3d
000002c0: 2e44 513c f5ff 8e3c 1713 eb3c b6b7 9c3c
000002d0: 87d5 29bd 040d 953d b4d5 1cbd b593 9e3d
000002e0: 1d4e 21bc 6ecf 29bd 0d97 ce3d bd8c 213d
000002f0: deb4 94bd 7d99 7bbd 1418 873d ab9b 053d
00000300: e736 0b3d fd21 e4bc 1cb5 b9bd a337 3bbc
00000310: 8972 8cbd 7d43 ff3c 9691 8b3c 4ab3 07bd
00000320: 712a 85bd 612e 953d ddc7 b7bc 96d4 6c3d
00000330: 95ee 6dbd 3846 b43d acc0 62bc 6f46 1cbd
00000340: 8af9 b93d aae9 553c 5e5a 70ba e557 2f3d
00000350: e469 81bd 188e 213d 49d8 9e3b 3a72 9f3d
00000360: 1b65 e9bc 7bc3 30bd 53b7 663b 00fe cb3c
00000370: 8a94 003d 1345 b73d cb7f a9bd aed8 a6bd
00000380: 8ca2 8ebc 8005 bbbd dc41 88bd 5adc a43c
00000390: 29c8 b0bb ac0a fd3c b23a 45bd 260a 4b3d
000003a0: 4c4f 993d 5d64 c73d 09a0 b13d 6acd b83d
000003b0: fbe3 00bd 5fe3 8fbd f727 623d b935 56bd
000003c0: 56cc 34bc a9cc 49bd 5a01 093d 2e87 a3bd
000003d0: 8e24 30bd b89b b83d 0387 eabc 84b9 debc
000003e0: 282a 953d 9e3f adbd 1972 8bbc 12a0 253d
000003f0: 04b0 cf3d 500f 7ebc a673 85bc dfd2 ba3d
0.017124891 0.07609692 0.017743353 -0.02347698 0.08869554 -0.074054986 -0.059358217 -0.082464345
-0.014681359 0.06077389 -0.08893188 0.07753161 0.009266584 0.051498827 -0.09590704 -0.033659257
-0.089761205 -0.08009685 -0.09187897 0.029306665 0.060683407 0.061056558 -0.055546485 -0.058821723
0.09269041 -0.08426412 0.055111278 -0.091497175 0.03970471 0.0337975 0.021890339 0.037327886
-0.07368673 -0.0026931583 -0.040170696 -0.006918694 0.05812625 -0.06385654 -0.09376775 0.013035745
0.030786252 -0.021738973 0.06308549 0.07993779 0.011581722 0.09111686 -0.05780154 0.03833337
0.044520516 0.0053193388 -0.08148549 0.028199345 0.023875296 -0.04047513 -0.0803161 0.0047196397
0.051396284 0.009775702 -0.056068424 0.0813686 0.032660574 0.04690268 -0.09533043 -0.046225622
0.01451207 0.01421699 -0.07806347 -0.09926894 0.043143008 -0.026812177 0.08570128 0.01041891
-0.05216963 -0.094760396 -0.05958398 0.03795412 -0.09042629 0.022355609 -0.027287217 -0.08394531
0.01954459 -0.012109649 -0.08471565 -0.035200894 0.06967079 0.10188344 -0.062466234 -0.008336996
0.05216313 0.03875911 -0.09322604 -0.089567 0.093979076 -0.09551576 -0.054817002 -0.006792878
-0.01185113 0.07721552 -0.0006655819 0.015762666 -0.047511976 0.05530569 0.06883564 -0.042649474
0.09808676 0.07917047 0.054570552 -0.033630434 -0.0046180715 0.06756536 -0.045032237 0.00318843
0.07438518 -0.09726665 -0.02330178 0.02610187 -0.04102833 -0.020716954 -0.09622521 0.08536021
-0.024065997 0.039029248 0.08145461 0.024582537 -0.03377556 0.03367908 0.019620778 -0.08063821
0.09003743 -0.09017563 -0.00393413 0.045829643 0.08734776 0.0893632 -0.01922424 0.02462237
0.056289434 -0.08535693 0.07691252 -0.06815958 0.10079901 -0.023179175 -0.085106134 -0.040316902
0.03706905 -0.09685207 -0.09725529 0.09593493 -0.035949443 0.037320487 0.08501096 -0.029824592
-0.083455056 -0.053195905 -0.010347137 0.06658687 -0.024868261 0.088506766 -0.050785646 0.0191203
0.07944423 0.06559892 0.063783824 -0.07448292 0.08749208 -0.07873886 0.07308405 -0.09212562
0.07143741 -0.020630084 0.052575827 -0.025967235 -0.08643204 -0.08167399 -0.0022863143 0.06948961
0.012772603 0.017456034 0.028695626 0.019130569 -0.0414634 0.07277873 -0.03828974 0.07743017
-0.009845284 -0.041457586 0.100874044 0.03944086 -0.0726106 -0.061425675 0.065963894 0.03261916
0.033987906 -0.027848238 -0.09067747 -0.011426839 -0.06857783 0.03116011 0.017037194 -0.033129968
-0.06502236 0.07284237 -0.02243417 0.057819925 -0.058088858 0.08802456 -0.013839882 -0.03815311
0.09080799 0.013056198 -0.0009168739 0.042808432 -0.06319025 0.03944215 0.0048475605 0.07785459
-0.028490594 -0.043155175 0.0035204485 0.02490139 0.031391658 0.08948722 -0.08276328 -0.08146797
-0.017411493 -0.091319084 -0.06653187 0.020124603 -0.0053949547 0.030888878 -0.04815168 0.049570225
0.07485828 0.0973594 0.086731024 0.090235546 -0.03146742 -0.070257895 0.055213895 -0.052297328
-0.011035046 -0.049267445 0.033448555 -0.07984768 -0.04300361 0.09014076 -0.028628832 -0.02718807
0.07283431 -0.084594 -0.01702218 0.040435858 0.10140994 -0.0155065805 -0.016290497 0.09122252

decoder.0.bias f4 [32]
00000000: e362 f1bc 1e33 0fbc 6f32 813d ae07 ff3c
00000010: c30e 5b3d a83d be3d 78ba 8b3d eebd 953c
00000020: 9c19 823b 6725 be3d 1849 1ebc 1f61 4e3d
00000030: c10a bb3d 5203 a5bd 3599 993d 76fe 803d
00000040: cfaa cfbb c14d b4bd 8223 8c3d 651f d03d
00000050: bdaf a03c 8747 813d 5f83 39bc ccb0 b03d
00000060: ff60 f2bc 3548 833d 2621 d93b 6388 223d
00000070: e4d2 35bc 9b84 a8bd bc16 d23c 7019 a3bd
-0.029466098 -0.008740215 0.063084476 0.031131592 0.053480875 0.09289104 0.068226755 0.018279042
0.003970338 0.09284478 -0.009660982 0.05038559 0.091329105 -0.08057274 0.07499925 0.062985346
-0.0063375006 -0.08803893 0.0684271 0.10162238 0.019615049 0.06312471 -0.011322825 0.08627471
-0.029587267 0.06410257 0.006626266 0.03968085 -0.0110976435 -0.082284175 0.025645606 -0.07963836

decoder.2.weight f4 [32, 16, 5]
00000000: 109e 38bd 4ac1 623d 52f5 a63d 366b 97bd
00000010: 1c66 c93c bb8d d8bd f9c8 ca3d 47a4 a33d
00000020: 401b 74bd 3aa9 2fbd 0b75 453d 3e2a 523d
00000030: b080 d63d c2fb e3bd f68c 9fbd 3556 bcbb
00000040: c5ed a83d ee05 14bd b696 953d e2ae 44ba
00000050: 3230 cfbd fd5f 333d 3d92 b63d e931 033d
00000060: 1982 a53d be2f 023d 3012 433d 1200 743d
00000070: 2b8c b9bd ad96 b43d 29cb 4d3c 9bce 433b
00000080: 40fa b0bd 0c4c 4a3d e578 bc3d 8539 4d3d
00000090: 4e29 8d3d 4a4a 79bd 7cf1 cf3d 7b68 c2bd
000000a0: b30f c1bb b8de d63d 48fc c8bd 1b3c 073d
000000b0: f560 c13d f3b2 d3bd 0ce6 85bd 0dea efbc
000000c0: 70c0 833d 2295 213d 82e5 573c 8606 543d
000000d0: 94d0 ad3d f158 c1bd 8bca 103d 550d bebd
000000e0: c14c c7bd 602a df3d d4c1 393d 14c4 7e3d
000000f0: 97a7 d43c ac82 66bd eaee b33d 068a 67bd
00000100: f658 f1bc 60d2 d8bd c6cd 9fbd ad03 283d
00000110: ac4d 08bd 8806 a2bc beb4 6bbb 3506 da3d
00000120: 7f14 cb3c 869e 19bd 3ebf 0bbd b1aa b4bd
00000130: eb40 833d 897f 9e3d 4055 cf3d a516 0bbd
00000140: 62b2 d33d f6ab 853d 958f 983c fa28 963d
00000150: 176b d3bd be04 85bb 7771 aabd 30fe b53d
00000160: bc15 b23c 9db0 1bbd f1ef 87bd 69eb 25bd
00000170: 5ba0 cb3d cc46 87bd 9ef9 58bd c106 eebc
00000180: b596 6bbd 1537 e0bb c5db ba3d 6a68 03bd
00000190: 272b 843d 98ef b0bd 914b a63d df9b adbd
000001a0: 8696 c4bd a14c ccbd e8f7 53bd 28f3 3e3d
000001b0: cc42 a9bd e1b3 28bd 8be7 853d ff39 c2bd
000001c0: df8a fa3c ff0a 7a3d 5643 8b3c 75cd cd3d
000001d0: f4dc e2bd b3a9 3dbd 5825 dabd 5d13 b0bd
000001e0: 02d4 e2bd 8687 eebc 6294 04bc 19b2 a53d
000001f0: 11a5 d4bd 0021 d93d 712e 40bd 9807 3b3d
00000200: de67 953d 173d bc3d 9d0e 84bd 7145 8b3d
00000210: 6586 78bd ddc1 aa3d 0da5 303d 4b8a b7bd
00000220: 414e 413d fbac a03d 5a75 a13c 6d9f b43d
00000230: c869 d0bc 2148 b1bd 155a 9bbd 4d4d 4fbd
00000240: 875c fa3b 7270 283c e5b0 ce3d 272b 163c
00000250: c2d1 873d 6325 cf3c 8332 97bd aecb c83c
00000260: 217b 52bd bc04 dcbd 5b22 5f3d 570e 483c
00000270: 4457 f6bb b875 313d de09 d63d e54a 7dbd
00000280: d2bc 3fbc 8b84 953d 7040 b9bd 3049 103d
00000290: 24e6 05bc d98e 8cbd 3428 fa3b 072c caba
000002a0: 327e 89bd 0de1 133d 3b12 a3bd 826b da3c
000002b0: 98ae ec3c 7444 65bd e6df ec3c eb49 d6bd
000002c0: 7958 8ebc 3985 da3d f276 b83d b0c6 10bd
000002d0: 30ef eb3c 0490 913c 215f 3e3d 5085 12bd
000002e0: 6cec 7c3c 1d6b 9c3c 3cd1 43bd e0b6 a1bd
000002f0: 4231 5abc 271c 3bbb 2110 373d 954a 26bd
00000300: 98e3 e0ba 863a 4c3d bf7a d93d 8440 61bd
00000310: cda4 b8bb edf7 9dbd 934a b1bd 581b 073d
00000320: b8f0 ba3c 9453 9bbd ef7d 21bc 7906 7d3d
00000330: 41f1 8e3b e1cd 2bbd 2221 b6bd 214c a2bd
00000340: 9078 80bd 0696 0f3d 775a 66bd 34ca ddbd
00000350: a51c a2bd 2f9d 303d 0757 d83d 56b7 593d
00000360: be45 14bd 01d2 8fbd 3fce 7b3d 1d04 ccbd
00000370: be28 49bd 2921 aabd b929 c23d 8ae2 1738
00000380: 56de 9139 8927 c3bd 9891 aebd aa58 d93d
00000390: ac66 f93b e4d4 6e3d d0ff 783b 3a6b 2bbc
000003a0: 1519 5bbb 558e da3d 813c d13d be83 53bd
000003b0: bb0e 193d 275c 08bb 8da5 e53c b9d2 8f3d
000003c0: 4fa9 fbbc e5c2 06bc b3fb a83d cfb4 a53d
000003d0: 0acf 92bd fbff 3abc b908 213d 8725 923d
000003e0: bc00 333d 02c9 bebc 2ff2 c1bd de5a ab3d
000003f0: 7c19 69bd fd31 113c 4087 7abd dff6 8f3c
-0.045072615 0.055360116 0.0815226 -0.07393496 0.024584822 -0.10573908 0.09901614 0.07990318
-0.0595963 -0.042885996 0.048207324 0.051309817 0.10473764 -0.11132003 -0.07790558 -0.0057475814
0.08248476 -0.036138467 0.073041365 -0.0007502866 -0.101166144 0.043792713 0.089146115 0.03203002
0.08081455 0.03178381 0.047624767 0.05957038 -0.09059938 0.088178016 0.012560644 0.0029877785
-0.086414814 0.04938893 0.09202746 0.050103683 0.06892644 -0.060861863 0.10153481 -0.09492584
-0.005891764 0.10491699 -0.09813744 0.033016305 0.09442321 -0.10336866 -0.065380186 -0.029286409
0.06433189 0.039448865 0.0131772775 0.051764034 0.08487049 -0.09440792 0.03534941 -0.09279887
-0.097314365 0.10896754 0.045350865 0.062198713 0.02595882 -0.056276962 0.087858036 -0.056528114
-0.029461365 -0.10587001 -0.0780292 0.04101913 -0.0332772 -0.019778505 -0.0035965885 0.10645715
0.024790047 -0.037504695 -0.03411793 -0.08821619 0.064088665 0.07739169 0.10123682 -0.033957142
0.10336758 0.065269396 0.018623153 0.073320344 -0.1032316 -0.004059403 -0.08322423 0.08886373
0.02173888 -0.03801023 -0.06637562 -0.040507708 0.09942695 -0.066053 -0.05297243 -0.029055955
-0.057516772 -0.006842504 0.09123949 -0.032082 0.06453543 -0.08639449 0.08119882 -0.08476996
-0.095990226 -0.09975553 -0.051750094 0.04661861 -0.082646936 -0.04118717 0.06538304 -0.09483718
0.030583797 0.061045643 0.016999882 0.100489534 -0.110773 -0.046304416 -0.10651654 -0.08597443
-0.110755935 -0.029117357 -0.008092018 0.0809061 -0.103830464 0.106019974 -0.04691929 0.04566154
0.07295202 0.091913395 -0.064481 0.06800354 -0.060675044 0.08337758 0.043126155 -0.08961924
0.04719377 0.078454934 0.019709278 0.088194706 -0.025441065 -0.086563356 -0.07585541 -0.05061083
0.0076404247 0.010280715 0.10092334 0.009165562 0.06631805 0.025286382 -0.07382681 0.024511185
-0.051386956 -0.107430905 0.054476123 0.01221045 -0.007517727 0.043325156 0.10451101 -0.061839003
-0.011702733 0.07300671 -0.090454936 0.035226047 -0.008172546 -0.068631835 0.007634187 -0.0015424498
-0.06713523 0.036103297 -0.079624616 0.026662592 0.028891847 -0.055973485 0.028915357 -0.104633175
-0.017376171 0.106699415 0.09007062 -0.035345733 0.028800577 0.017768867 0.04647744 -0.035771668
0.015437227 0.019094044 -0.047806963 -0.07896209 -0.013317408 -0.0028550716 0.044693116 -0.04059847
-0.0017157672 0.0498605 0.10619115 -0.054993168 -0.00563488 -0.07713304 -0.08656802 0.03298506
0.022819862 -0.07584301 -0.009856685 0.06177375 0.004362256 -0.04194439 -0.08893038 -0.07924677
-0.062729955 0.035055183 -0.056238618 -0.10829583 -0.0791562 0.043118652 0.10563474 0.05315336
-0.036199324 -0.07022477 0.06147599 -0.09961722 -0.04911112 -0.08307106 0.09480614 3.6212186e-05
0.00027822208 -0.09529025 -0.085238636 0.106126145 0.0076111164 0.058308497 0.0037994273 -0.0104625765
-0.0033431698 0.10671679 0.10216618 -0.05163931 0.037367564 -0.002080688 0.028033042 0.07022614
-0.030720381 -0.008225177 0.08251133 0.08091127 -0.07168396 -0.01141357 0.03931496 0.07136064
0.043701872 -0.023289207 -0.09470021 0.08366941 -0.05690907 0.008862016 -0.06116414 0.017573772

decoder.2.bias f4 [16]
00000000: 2e88 1abd 211d 14bd ff71 c1bd 49dd c93d
00000010: 8341 f13c ac3a b93c 3284 fc3c 686a b53d
00000020: aebf 253c 3403 0bbd dc74 173c b8e4 6c3d
00000030: edd1 8dbd b305 54bc 359d 45bd 2372 27bd
-0.037727527 -0.036160592 -0.09445571 0.0985666 0.029450184 0.022610985 0.030824754 0.08858186
0.010116501 -0.0339386 0.00924417 0.05783531 -0.06924806 -0.012940812 -0.048245627 -0.040880334

decoder.3.weight f4 [16]
00000000: 0000 803f 0000 803f 0000 803f 0000 803f
00000010: 0000 803f 0000 803f 0000 803f 0000 803f
00000020: 0000 803f 0000 803f 0000 803f 0000 803f
00000030: 0000 803f 0000 803f 0000 803f 0000 803f
1.0 1.0 1.0 1.0 1.0 1.0 1.0 1.0
1.0 1.0 1.0 1.0 1.0 1.0 1.0 1.0

decoder.3.bias f4 [16]
00000000: 0000 0000 0000 0000 0000 0000 0000 0000
00000010: 0000 0000 0000 0000 0000 0000 0000 0000
00000020: 0000 0000 0000 0000 0000 0000 0000 0000
00000030: 0000 0000 0000 0000 0000 0000 0000 0000
0.0 0.0 0.0 0.0 0.0 0.0 0.0 0.0
0.0 0.0 0.0 0.0 0.0 0.0 0.0 0.0

decoder.3.running_mean f4 [16]
00000000: 0000 0000 0000 0000 0000 0000 0000 0000
00000010: 0000 0000 0000 0000 0000 0000 0000 0000
00000020: 0000 0000 0000 0000 0000 0000 0000 0000
00000030: 0000 0000 0000 0000 0000 0000 0000 0000
0.0 0.0 0.0 0.0 0.0 0.0 0.0 0.0
0.0 0.0 0.0 0.0 0.0 0.0 0.0 0.0

decoder.3.running_var f4 [16]
00000000: 0000 803f 0000 803f 0000 803f 0000 803f
00000010: 0000 803f 0000 803f 0000 803f 0000 803f
00000020: 0000 803f 0000 803f 0000 803f 0000 803f
00000030: 0000 803f 0000 803f 0000 803f 0000 803f
1.0 1.0 1.0 1.0 1.0 1.0 1.0 1.0
1.0 1.0 1.0 1.0 1.0 1.0 1.0 1.0

decoder.5.weight f4 [16, 3, 5]
00000000: 4711 2cbd 1f19 803e c2ea 063e 08f5 2b3e
00000010: e72e 42bc 1401 d33d f2f1 30be 67fc b4bd
00000020: 6cc8 7d3d a7ff 26be 70bb fabd 276e 9dbd
00000030: 334b c83d bcf2 0fbe a5eb 6c3e d1bb 1cbd
00000040: 0136 5b3e 92cc 2abe 38e7 ebbd a5e7 82be
00000050: b27c 63be d4d1 e9bd 7ec6 353e ff85 cabd
00000060: 028b 183e bdd9 5ebe 2b76 cabd baed 27bd
00000070: 574b 4abe 438a fd3d 7de0 4ebe 7ed7 bfba
00000080: 5dfe a3bc 5934 1bbe 925e e0bd 7570 09be
00000090: f422 2dbe bd5e 79be dd5c a73d cf1c 1b3e
000000a0: 5b52 74bd 0d80 4cbd fa8b d0bd 5e08 4abe
000000b0: f6ce f23d fe13 723e 9046 bb3c f960 93bd
000000c0: 37e9 193e 3bab 99bd c7d2 48be c4aa 033d
000000d0: 9390 513e 9a30 1dbe 0e22 e03d 4296 0d3e
000000e0: 77a0 60be 77d8 593e 4749 f9bc 251b 39bd
000000f0: 13bf 5b3e df71 1f3e 869e 453d c2c7 61bd
00000100: 5005 34be 5b37 fbbd 2ea4 5b3e 7256 153e
00000110: 416f 30be 569a 5e3d 02ff cdbd 6ebb 4abd
00000120: 1abb 713e 204b 023e 818a 4b3e f9e5 eabd
00000130: 6f9a 6e3d 0633 0a3d 36bf 763e 0ab8 013e
00000140: 6bb3 0dbe 1984 453e b737 74be eac3 0c3d
00000150: 128b 643e 69c4 76be dbde 4f3e c944 213e
00000160: 12db e4bc ebcd c93c 7d55 d2bd 7afa 833e
00000170: 0ce3 283e 4b5d 283e 5bb1 d13d 9d8d 213e
00000180: b370 f9bd 88ef 36be f14a 653e 981e 91bd
00000190: b071 53be 5591 53be 494a 1b3e f86a 71bd
000001a0: a1af 55bd 870d 453e ac23 0cbe 9901 553e
000001b0: 401f d23d ceae 2c3e da75 ee3d be14 ffbd
000001c0: 0410 7a3e 7bc5 31be db70 a73d 2823 18be
000001d0: e02d e23b 2ef3 6abe b961 f9bd 6105 9f3d
000001e0: d89e 26bd 6afd a0bd 21f2 2a3c 630e 903d
000001f0: 943f 53be d7b1 7d3e e208 ec3d 951b e43d
00000200: dc12 673e 7c60 82be 2967 05bd eac4 79be
00000210: d160 4cbe 896b d63d 90ea 283e b0b7 4bbe
00000220: b067 cd3c c4ce 7b3e aa56 553e 575b 73be
00000230: a96a 293e f653 d33c 44a0 30be f072 3cbe
00000240: 5343 c8bc 7ea5 87bc 509e 4bbe 3176 f6bd
00000250: 49ec 583e bf46 c8bd 3436 a9bd dd11 f2bd
00000260: 338f 113d 07fa 753d b9b6 31be 215f 573e
00000270: e966 03be a7e6 523e fbb9 32be 214f 803e
00000280: 63fd 0f3e 999f 293d 0503 bd3d 9883 523d
00000290: 20a0 f1bc ee8b 3d3e c39a 563e 559a 113e
000002a0: 9fe8 163d 188a 7d3e 74f6 9a3c 58d6 04bb
000002b0: c9a6 55bb 1c21 84be efe3 09be 5fcd 703d
000002c0: 35dd 2cbe bf92 103c 7eb8 7abe 407a 5fbe
000002d0: c140 7e3e 5212 79be 79f8 53be e0f1 04be
000002e0: 9d9a 3dbe d3a9 4c3e 16f7 6e3e 8b19 a53c
000002f0: 45c1 813e dd64 663e d480 73bc 3cd0 4f3d
00000300: c429 f33d 9c66 183e 9153 8cbd 1604 7bbe
00000310: 34ed 8abd 5fff 753e 2d0e 5fbe abe8 e63d
00000320: 6f17 3f3e 66db 653c 1011 7b3e 72d5 5cbe
00000330: a017 483d 3498 05be 622e 973d 869b 5f3e
00000340: 261f 823e 9b48 a23d 2905 6f3e 3c06 593d
00000350: ed9f 97bd cf5f 073e 6827 fa3d a6fb df3d
00000360: 2289 813e df8c e53d 40cf 793e d1c0 94bd
00000370: 9d15 2c3e 7ed9 e13d 0014 12be 318a 98bc
00000380: 78ca 613e 82d3 c7bd ea95 72be f3fb debd
00000390: 8c73 803e 03a7 aebd 61be cd3c 3e5d 37be
000003a0: 984c 13be 57c3 363e 45ce 33be ecb3 a3bd
000003b0: d930 dfbd 0fd5 9dbd c3b8 82be 8437 03bd
-0.042008664 0.25019166 0.1317549 0.16792691 -0.011852003 0.1030294 -0.17279795 -0.088372044
0.061958715 -0.16308461 -0.12242782 -0.076870255 0.09779968 -0.1405744 0.23136766 -0.038265053
0.2140732 -0.166796 -0.11518711 -0.25567356 -0.22215536 -0.11416975 0.177515 -0.09888839
0.14896777 -0.21762748 -0.0988582 -0.040998198 -0.19755302 0.12379887 -0.20202823 -0.0014636365
-0.02001875 -0.15156688 -0.10955538 -0.13421805 -0.16907865 -0.24352546 0.08172009 0.15147708
-0.059648853 -0.049926806 -0.101829484 -0.19729754 0.11855881 0.23640439 0.022860795 -0.071962304
0.1503037 -0.07503363 -0.19611655 0.032145277 0.20465307 -0.15350571 0.109439954 0.1382685
-0.21936212 0.21273981 -0.03043045 -0.045191903 0.21459608 0.15570782 0.048246883 -0.055122145
-0.17580152 -0.122664176 0.21449348 0.14583758 -0.1722994 0.054346405 -0.100584045 -0.049495153
0.2360653 0.1272397 0.19877054 -0.11469645 0.058252748 0.033740066 0.24096379 0.12667862
-0.13837974 0.19288673 -0.23849379 0.034366526 0.22318676 -0.24098362 0.20299856 0.15748896
-0.027936492 0.024634322 -0.10270212 0.25777036 0.16492862 0.16441838 0.10238906 0.15776677
-0.12179699 -0.17864811 0.22391869 -0.070859134 -0.20648837 -0.20660909 0.15165056 -0.058939904
-0.052169446 0.19243442 -0.13685483 0.2080139 0.10259867 0.16863558 0.11643572 -0.12455128
0.24420172 -0.17360489 0.08175822 -0.14857161 0.0069024414 -0.22944328 -0.12176842 0.07764698
-0.04067883 -0.07860835 0.010433705 0.07033994 -0.20629722 0.24774872 0.11525132 0.11138073
0.22565788 -0.25464237 -0.032569084 -0.24391523 -0.19958808 0.104697295 0.16495728 -0.1989429
0.025073856 0.24590594 0.20833841 -0.23765312 0.16544594 0.025796872 -0.17248636 -0.1840322
-0.024446165 -0.016558405 -0.1988461 -0.12034262 0.21183886 -0.09779119 -0.082622916 -0.118198134
0.035536956 0.060052898 -0.1735486 0.21032383 -0.12832226 0.205958 -0.17453758 0.2506037
0.14061503 0.04141197 0.092290916 0.05139503 -0.029495299 0.1851041 0.20957474 0.14219029
0.03684294 0.2475971 0.018916346 -0.002026936 -0.0032600632 -0.2580651 -0.13465856 0.058789607
-0.16881259 0.0088240495 -0.2448444 -0.21823978 0.24829389 -0.24323395 -0.20700254 -0.12982893
-0.18516012 0.19986658 0.23336443 0.020153781 0.25342765 0.22499414 -0.014862258 0.050735697
0.118732005 0.14882892 -0.068518765 -0.24513277 -0.06783524 0.24023198 -0.21782751 0.11274847
0.18661283 0.014029359 0.24518228 -0.21565798 0.048850656 -0.13046342 0.07381894 0.21836671
0.2541439 0.07924005 0.23341812 0.05298446 -0.0740355 0.13220142 0.122145474 0.1093667
0.25299937 0.1120851 0.24395466 -0.07263339 0.1680512 0.110278115 -0.14265442 -0.018620582
0.22049892 -0.09757139 -0.2369 -0.10887899 0.25088155 -0.08527949 0.025115194 -0.17906663
-0.14384687 0.17847954 -0.17559154 -0.07993302 -0.10897989 -0.07706653 -0.25531587 -0.032035366

decoder.5.bias f4 [3]
00000000: a79e 55bc cd65 abbb 1cb7 4b3e
-0.013038314 -0.0052306415 0.1989407
