models/best_model_small.pt (torch, 187823 bytes, 22 tensors)

net.0.weight f4 [32, 3, 5]
00000000: 7b50 77be da76 63be 89c6 6ebe 820b 053e
00000010: a92a 4c3e 47e4 6cbe 654f 703e 1498 dabc
00000020: 0dbd 72be 0c78 c33d 0468 453e 9b00 963b
00000030: f49e 5dbe 5c7e b0bc 6b47 e53d b5b4 4a3d
00000040: 7912 b63d 8ba6 b5bd 44dc bd3d aa5d 373e
00000050: 1b8e 3ebe d4a4 583e 5838 5a3e fb81 30be
00000060: 27fb a93d 0e63 14be 48d0 82be 7811 803e
00000070: f85b 4f3e 29af 3f3c 3c09 e9bc 6e1c fc3d
00000080: d636 34be a5b3 533e a107 c4bd f483 6dbe
00000090: 0ae4 eabd b050 f83d 40ec f339 f431 1d3e
000000a0: 5467 303e 3b0d 60bd 4c14 5d3e caef e9bc
000000b0: 462a 5bbe 035b e6bd b7a8 163d 0a56 653e
000000c0: 6637 81be 68c7 e5bb 9ee2 8d3d 2755 f43d
000000d0: c32d d23d b72b 64bd 3a98 e8bd 229c d8bd
000000e0: 9937 473e 7a86 c23d 4c28 523e adf9 5b3e
000000f0: dc81 6ebe d6fb 6bbe 06f9 8abd eb60 113e
00000100: 5de9 ffbd deca a83d 1305 e93d 59b9 b2bd
00000110: 6f31 ab3d 6ad9 2abd 4347 0bbe abc9 48be
00000120: 3b35 27be dfe9 423e 5d9e ff3d 29cf 0d3e
00000130: 1c61 11be 7bec 493d 5e39 f53c 0475 623e
00000140: 76b6 b4bd 14ff 803d bffa 3fbe 223d cc3d
00000150: 44b3 043d c1b2 42be 0449 103c aff2 edbd
00000160: 5449 303e fddf 89bc 54bf 6ebd 9e62 50bc
00000170: d439 4c3e c2d4 48be e37b 013e 42b6 cb3d
00000180: ffc6 44be 5418 5abc 395b 7bbe 7a59 c4bd
00000190: 3b38 1f3d 4325 8fbd 9371 6a3e aa02 c93d
000001a0: a9fb 4fbe a3ea fabd d2c3 823e 27cd 243d
000001b0: 89f1 81be 6419 19be cdeb 303c c589 2bbd
000001c0: f804 8bbd 2985 37be 7c38 64be 0492 153e
000001d0: 43ad 5ebe 8663 3fbe ecca 483e 4339 12be
000001e0: 4a25 363e 0b10 71be 5859 743e f8ef edbd
000001f0: f318 0bbe 070f 46be a266 723e 4395 e73d
00000200: 9c0d b23d d074 763e ec67 193e 2313 5bbe
00000210: 541f 2dbe 1ca8 88bd 07af 44bd cd59 4ebe
00000220: 2c68 d83d 0e6e 353e 3d1c a63c cb4c f63d
00000230: 89a3 efbd d103 96bd 6815 8d3c 88bf 153d
00000240: 58be 2abe 7209 fc3d 5dd6 193e 1b03 013e
00000250: 70f5 09be 6212 533e 1411 2b3e 5edd df3d
00000260: b91c a03d 38b6 82be 8e93 473e b132 503d
00000270: 4df2 49bd e644 a83d 7e50 19bd e886 02be
00000280: cdd1 a03d 540b 31be 598c 50be 80d0 793e
00000290: 91ac 9b3d a2ce 50bd 0e72 68be 5420 2b3c
000002a0: 4c3b 763e 8e8e 55be 53f3 3dbc 94ef 7b3d
000002b0: 7a24 883c b778 43be 7428 78be 0bb3 1cbd
000002c0: 4b3b 10be 6225 833e fe40 e7bd 2449 243d
000002d0: 3abe 71be 00cd 1c3b c59a 7cbe 333c 19be
000002e0: 389c 22bd 8008 40bd 51a5 c7bc f954 913d
000002f0: c2a1 b1bd 4bae 04be 9ae5 65be 9574 2cbe
00000300: 0c93 bebd 710e 64bd 6eb3 d6bc 08ef aebd
00000310: 5e2e f2bd 50e3 d1ba 3951 2f3d 26b6 9c3d
00000320: 8c7c 17be 7c6a 2b3e 17e4 213e 1737 04bd
00000330: d8ba 7b3e a88b 2fbc e2b5 4dbe 618e 333e
00000340: 6515 a2bd 221c 033e 829c 51be fb68 6cbe
00000350: d310 5c3e 3031 5d3e 6b1b 1f3c e1df 703e
00000360: 9975 bb3d e0c8 103e 2628 233d a026 943d
00000370: 603f 793e cfb2 4b3d 512e b0bd aebb b7bd
00000380: f4d0 663e f034 6ebc 70a2 183e 6150 913c
00000390: d7a8 1d3e 7a5e 6f3e bfd1 2b3d e99d 583e
000003a0: 8949 383d 80fb babd 046f 2a3e 6dcf 113d
000003b0: f2c9 133e c7d5 82bd bf20 c2bb 27e0 803e
000003c0: 8be6 403d 0c28 60be 0c67 87bd f510 cdbd
000003d0: 1094 00be f1aa 113e c56d 21be 3bc1 5e3e
000003e0: 3157 49bd 9a99 713d 6fe1 103d 797f 573e
000003f0: 2123 54be f185 66bd a0cf 37bb cbb5 56be
-0.24151795 -0.22213307 -0.23317923 0.12992671 0.19938149 -0.23133956 0.23467787 -0.026683845
-0.2370493 0.095443815 0.1927796 0.004577709 -0.21642667 -0.021544628 0.111952625 0.049488742
0.08890242 -0.08869656 0.09270528 0.17906824 -0.18608896 0.21156627 0.21310556 -0.17237084
0.08299857 -0.14490911 -0.2554953 0.25013328 0.20249927 0.011699476 -0.028446786 0.1231011
-0.17599043 0.20673998 -0.095717676 -0.23194867 -0.11469276 0.12124765 0.00046524592 0.15351087
0.17226917 -0.054700118 0.21589774 -0.028556723 -0.21402845 -0.11247828 0.036781993 0.22396103
-0.25237578 -0.0070122965 0.069279894 0.11930304 0.102626346 -0.055705752 -0.1135716 -0.10576655
0.19454803 0.094983056 0.20523185 0.21481963 -0.23291725 -0.23045287 -0.06785779 0.14197128
-0.124956824 0.08241819 0.11377921 -0.087267585 0.08359038 -0.04171125 -0.13601403 -0.1960818
-0.163289 0.19034527 0.12481377 0.13848557 -0.141972 0.04929779 0.029934581 0.2211495
-0.08823864 0.06298652 -0.18747996 0.09972598 0.032397524 -0.19013502 0.008806471 -0.11618554
0.17215472 -0.016830439 -0.058287933 -0.012718825 0.19943935 -0.1961241 0.12644915 0.09946872
-0.19216536 -0.013311464 -0.24546517 -0.09587379 0.038871985 -0.06989529 0.22894888 0.09814961
-0.20310844 -0.12251785 0.25540024 0.04023471 -0.2537959 -0.14951092 0.010798407 -0.041879434
-0.06788057 -0.1792189 -0.22287172 0.14606482 -0.21745782 -0.18690309 0.19608659 -0.14279656
0.17787662 -0.23541276 0.23862207 -0.11618036 -0.13583736 -0.1934167 0.23671964 0.11307766
0.08694002 0.24067998 0.1498105 -0.21394019 -0.16906482 -0.06672689 -0.04801848 -0.20151444
0.10566744 0.17717764 0.020277137 0.12026366 -0.11701114 -0.07324947 0.017222121 0.03655961
-0.16674173 0.12306489 0.1502318 0.12598841 -0.13472533 0.20612481 0.16705734 0.10930894
0.078179784 -0.25529647 0.19489881 0.050829593 -0.04930334 0.08216266 -0.03743028 -0.12746775
0.07852516 -0.17289478 -0.20366038 0.24395943 0.07601274 -0.05097831 -0.22699758 0.010444719
0.24046057 -0.20855162 -0.011593658 0.061507776 0.016618956 -0.19089018 -0.24234182 -0.038256686
-0.14085118 0.25614458 -0.11291693 0.040108815 -0.23607722 0.00239259 -0.24668415 -0.1496437
-0.039699763 -0.046883106 -0.024370821 0.070962854 -0.08673431 -0.12957112 -0.22450867 -0.16841348
-0.09305391 -0.055677835 -0.026208606 -0.08541685 -0.1182525 -0.0016013179 0.04280207 0.076519296
-0.14793605 0.1673984 0.15809666 -0.0322791 0.24582994 -0.010714449 -0.20088914 0.17534782
-0.07914237 0.128037 -0.20469859 -0.23086922 0.21490793 0.21600795 0.009711127 0.23522903
0.09153289 0.14139128 0.03983321 0.0723393 0.24340582 0.049731072 -0.08602584 -0.08971344
0.22540647 -0.0145389885 0.14905715 0.017738523 0.15396439 0.23375884 0.041948076 0.21153988
0.044992004 -0.09130001 0.16643912 0.035598207 0.14432505 -0.06388431 -0.005924314 0.25171015
0.047094863 -0.21890277 -0.066114515 -0.10013 -0.12556481 0.14225365 -0.1576453 0.21753399
-0.049155418 0.058984376 0.03537124 0.2104472 -0.20716526 -0.05628008 -0.0028047338 -0.20967786

net.0.bias f4 [32]
00000000: 7f89 5abe 9c0c 37be cb6d 07bd dc03 323e
00000010: ee8e d6bd 4f7f 243e 75c0 16be 8e2e 80be
00000020: e810 2ebd e794 503e e063 ce3d 8f17 b9bd
00000030: 34b1 553e fd7d 163e 9638 113d 17f2 e93d
00000040: 661b bd3d c701 603e 335c 493e 778b 623e
00000050: 7f87 693e 747e aabc ea43 d23d 59ae 01be
00000060: dbe0 b2bd 72c1 7ebe 7a37 3d3e 24ff d83d
00000070: 0f7c 34be 3623 1c3e 67a9 2ebe 375b 3c3d
-0.21341513 -0.17875904 -0.03306369 0.17384285 -0.104764804 0.1606419 -0.14721854 -0.25035518
-0.04249659 0.20369302 0.100776434 -0.090376966 0.20868379 0.14696498 0.035454355 0.11423128
0.092337415 0.21875678 0.19664077 0.22123514 0.22805594 -0.02081225 0.1026686 -0.12664165
-0.08734294 -0.24878481 0.18478194 0.10595539 -0.1762545 0.15247807 -0.1705681 0.045985427

net.1.weight f4 [32]
00000000: 77be 7f3f 77be 7f3f 78be 7f3f 77be 7f3f
00000010: c520 803f c320 803f 77be 7f3f 77be 7f3f
00000020: c520 803f 77be 7f3f c520 803f 77be 7f3f
00000030: c520 803f c520 803f c520 803f 77be 7f3f
00000040: c420 803f c520 803f c520 803f 77be 7f3f
00000050: c520 803f 77be 7f3f c420 803f 77be 7f3f
00000060: 77be 7f3f c420 803f c520 803f 77be 7f3f
00000070: 77be 7f3f c520 803f 77be 7f3f 77be 7f3f
0.999 0.999 0.9990001 0.999 1.001 1.0009998 0.999 0.999
1.001 0.999 1.001 0.999 1.001 1.001 1.001 0.999
1.0009999 1.001 1.001 0.999 1.001 0.999 1.0009999 0.999
0.999 1.0009999 1.001 0.999 0.999 1.001 0.999 0.999

net.1.bias f4 [32]
00000000: 4212 83ba 0a12 833a 2c12 833a 780d 83ba
00000010: 5112 833a 5d12 833a 4b12 83ba 3a12 83ba
00000020: 4512 833a 1c12 83ba 800b 83ba 5712 83ba
00000030: 4912 833a 4d12 833a 3e12 833a 6411 833a
00000040: 2b12 83ba 4412 833a f611 833a 4112 83ba
00000050: 3112 83ba e011 833a 5a12 83ba 5112 83ba
00000060: 5d12 83ba 0612 833a 3012 83ba 7e11 833a
00000070: 2111 83ba f611 83ba 4912 83ba 1412 83ba
-0.0009999948 0.0009999883 0.0009999922 -0.0009998521 0.0009999966 0.000999998 -0.0009999959 -0.0009999939
0.0009999952 -0.0009999904 -0.0009997934 -0.0009999973 0.0009999956 0.0009999961 0.0009999943 0.000999969
-0.0009999921 0.000999995 0.000999986 -0.0009999947 -0.0009999928 0.0009999834 -0.0009999976 -0.0009999966
-0.000999998 0.0009999878 -0.0009999927 0.000999972 -0.0009999612 -0.000999986 -0.0009999956 -0.0009999895

net.1.running_mean f4 [32]
00000000: dff8 6a3e 9ecb 9bbe 8bea ecbd 11c9 80be
00000010: 35f5 1c3f 7949 2bbe 8ac4 88be b8df 243e
00000020: b307 e23e 7ca3 16bf b775 95be 83bd bb3d
00000030: 8316 723f 0d40 563e 9357 71bd 7e0e 1abf
00000040: 864a 003f 0f07 e43e 4a2c 0c3f 036b c23e
00000050: 7237 4e3c bd69 843e acc4 bbbe ff03 3bbd
00000060: c8e7 003f d39b 813d 1267 ba3c 9aaf e0bd
00000070: 7bad a4be 3b85 1e3d be8c b1be 415b 9dbe
0.229465 -0.30428785 -0.11568173 -0.25153401 0.61311656 -0.16727246 -0.26712447 0.16100967
0.441465 -0.5884321 -0.29191372 0.09167006 0.945656 0.20922871 -0.058921408 -0.60178363
0.50113714 0.44536635 0.5475508 0.37972268 0.012586461 0.25861922 -0.36673486 -0.045658108
0.5035367 0.06328549 0.022754226 -0.10970993 -0.32163605 0.038701277 -0.3467769 -0.30733684

net.1.running_var f4 [32]
00000000: 761e a03f 549a 983f f86a 823f be2e 943f
00000010: 57be f83f 3d13 863f 993f 8a3f bb1e 883f
00000020: ef6e b93f daaa da3f d276 963f e465 853f
00000030: c50a 3540 0eaf 843f 3af6 823f 82cc ec3f
00000040: 5320 bd3f 9762 bc3f 2b75 dd3f cf07 af3f
00000050: 537e 843f ce89 913f 369b a33f 98da 823f
00000060: f972 be3f d471 983f 78a3 873f 6b2a ac3f
00000070: e3ea 903f fdb1 743f 2670 a83f e8bf 9b3f
1.2509296 1.1922097 1.0188894 1.1576765 1.9433087 1.0474621 1.0800658 1.0634378
1.4486979 1.708339 1.1755011 1.042172 2.8287823 1.0365922 1.0231392 1.8499911
1.477549 1.4717587 1.7301382 1.3674258 1.0351051 1.137018 1.2781742 1.022296
1.4878837 1.1909738 1.0596762 1.3450445 1.1321682 0.9558409 1.3159225 1.216794

net.4.weight f4 [64, 32, 5]
00000000: 82e6 7f3d b040 8f3d 1610 2e3d 0f20 6f3c
00000010: b873 a4bc 4920 6dbd 1b05 9c3d f7cb bebc
00000020: 6582 11bd a22d 2f3d 27cb 153c be39 c1bc
00000030: 7419 9ebd de62 38bc 7e09 5d3d b67b 9b3d
00000040: a9bc 543d 4dc1 193d 8da4 83bd 4a68 bd3c
00000050: 4a08 223d f410 52bd 3950 92bd 1803 88bd
00000060: 31e5 24bd 9f4e 413d 1ba2 9abd 9aaa 45bd
00000070: 4a93 133d 42e8 9dbd f58a 3d3d e00c 8cbd
00000080: 60e0 a5bc 81a1 9bbd 4a33 7e3d 278a 52bd
00000090: e772 e03c 3ad0 f53c a097 7c3c f5f7 4bbd
000000a0: bc70 b83c b5ca 76bc 97db 9e3d 6188 073c
000000b0: d2ef 84bd ad5e 3cbd 0e8b 83bd bb71 793d
000000c0: 79f1 953c b947 423d f6a2 833b c39d 4b3d
000000d0: 8952 68bd 2bff 213d 79c4 f6bc db13 8dbd
000000e0: d51c 4bbd 52ef 6b3d 106c 373c 69f4 85bd
000000f0: 2dad 67bd a775 e43c 365c 473d facd 9abd
00000100: 67a3 983d b91f 23bc 09cb f83c 33db 0abd
00000110: e022 d5bc a47e 863d b989 0fbd 186c 23bd
00000120: 287e 42bd 08fd 8dbd 47de 78bd 7b7f 0c3d
00000130: 6a7b 3a3d cf98 68bd 2ba6 983c c89c 563c
00000140: 97c4 90bd 1103 72bc 4c9b 8ebc e6af 1e3d
00000150: 001a 8abc 94e5 3bb9 b1df 80bd 137f 5f3d
00000160: 3260 543d a13d afbb 0456 7ebd 9028 45bd
00000170: e100 46bd 5dbc 7bbd c71b 4b3d 133b f7bc
00000180: 30d6 96bd 0e9d 733c fe44 7a3d 8535 a2bd
00000190: fc8a 38bd c845 2c3d 3382 47bd 897f abbc
000001a0: 5141 bfbc e7e4 643d 844a 13bd c1f0 9bbc
000001b0: 850d 583d 9895 19bd 5704 4f3d b2a3 a83c
000001c0: d652 66bc 89c2 36bd 7722 553d e529 79bc
000001d0: 822a 403d 051a a53c 88f5 3a3a 09a8 ebbc
000001e0: 1276 9f3d 9a8f 9b3d af74 143d 32ed 48bd
000001f0: 50dd 263c 8c71 763d d3ca f0bc 3c28 3a3d
00000200: 6717 8e3d 1d9c bfbc d02b 8dbd 273b 9abd
00000210: 9a91 8bbc 32b1 8dbd a32a 273c fa52 b83c
00000220: ae8b 993d 5ac8 5cbd dd34 773d f154 873d
00000230: 58b7 253d 1c03 913d 93d4 673d 6625 a53c
00000240: c284 2f3d 5563 9f3d 23e1 c43c bf5d 92bd
00000250: 6a19 92bc 4ade e9bc 4bfa 583d acba 7b3d
00000260: 0f58 8abb f123 843d 9674 8fbd 92e6 c5bc
00000270: 201e fb3c e2d1 52bd 48ae ccbc f95b c1bc
00000280: 3710 0dbd 0810 9e3c a989 fdbb 8506 7abd
00000290: bce4 6a3b 6e72 1cbd f454 523d d827 443c
000002a0: c937 8dbd 1712 d13c 7629 78bd f153 f73a
000002b0: 3cf7 16bd 6e6c a03d 33c3 6d3d 6e88 4b3d
000002c0: 4391 4abd 380d 083d 9c42 823b 7413 c4ba
000002d0: 0b99 38bc a6cc 52bc b3e6 4e3c b088 9d3d
000002e0: 427a a6bc a5c3 653d 35b3 e3bc ae56 1dba
000002f0: c3fc 9bbd 322d ebbc 165b 3e3c daac 793d
00000300: dacb 24bc a619 703d b074 413d c944 29bd
00000310: ea73 9e3d ea87 2bbd 3c6f 46bd b413 013c
00000320: ffa7 4d3d 6c6f 24ba f6db 91bd 8926 67bd
00000330: 2926 7d3a 3c01 393d ac86 983d ad7f 893d
00000340: 3a61 74bd f496 e23b bc8f dbbc 6076 a1bd
00000350: be22 0f3c d950 f83c c580 73bd 5914 2cbd
00000360: f71d 84bd ddc2 493d fe52 9ebd 5418 4a3d
00000370: 50ad e0b8 38c2 94bd 348a afbc 7806 98bd
00000380: 13ed 623b 2bbe 8cbd 57c0 063d 6616 67bd
00000390: b8af 173d d275 983d 757b 94bd 3b13 0dbd
000003a0: 0314 8ebd ae92 383d e435 9f3d 0a14 b13c
000003b0: 28cf 493d fb6d 6bbd 4dc8 aa3c d6b1 8dbd
000003c0: c913 0fbd 62b8 753d 69a1 c83b 37ce 9abd
000003d0: 039a 9dbc f1bd aabb ff01 e53c 3b9a 9cbd
000003e0: 8dd9 dcbc f077 7c39 8300 a5bc eb2d 2bbd
000003f0: 775f 03bc a0e5 42bd 747f 47bd 82db 793b
0.06247569 0.0699476 0.04249581 0.014595046 -0.02007471 -0.057892118 0.07618161 -0.023290617
-0.035524745 0.04276813 0.009142674 -0.023587104 -0.077196985 -0.0112540405 0.05396413 0.07591955
0.051937733 0.03753786 -0.0642787 0.023121018 0.039558686 -0.0512857 -0.071442075 -0.06641215
-0.040257636 0.04719412 -0.075504504 -0.0482584 0.036029138 -0.07710315 0.046275098 -0.06838393
-0.020248592 -0.07599164 0.06206063 -0.051401284 0.02739854 0.030006517 0.01541701 -0.049797017
0.022514693 -0.015062978 0.07756727 0.008272261 -0.064910546 -0.045988727 -0.06423007 0.060899477
0.01830362 0.04743168 0.004017229 0.049711 -0.056719337 0.039549988 -0.030122982 -0.06888553
-0.049588043 0.05760128 0.011195198 -0.06540758 -0.056561638 0.027888132 0.048671924 -0.07558818
0.074530415 -0.009956294 0.030370252 -0.03390045 -0.026017606 0.065671235 -0.035043452 -0.039898008
-0.047483593 -0.069330275 -0.060758855 0.034301262 0.045527853 -0.056786355 0.018633923 0.013098903
-0.070687465 -0.014771239 -0.017408036 0.03874197 -0.0168581 -0.00017919234 -0.06292666 0.054564547
0.05184955 -0.005347923 -0.06209375 -0.048134387 -0.048340682 -0.061458934 0.049587037 -0.030179536
-0.07365072 0.014868988 0.061100952 -0.07920364 -0.04505442 0.042058736 -0.048708152 -0.020934837
-0.023346575 0.05588236 -0.035959736 -0.019035699 0.05274727 -0.03749618 0.05054125 0.020585869
-0.014057836 -0.044619117 0.05203482 -0.015207742 0.04691554 0.020154009 0.0007131924 -0.028766649
0.07786192 0.07595749 0.03624409 -0.049054332 0.010184601 0.06016688 -0.02939359 0.045448527
0.069380574 -0.02338987 -0.06893122 -0.07530814 -0.017037202 -0.06918563 0.0102030365 0.022500504
0.07497345 -0.053902008 0.06035315 0.06607998 0.040458053 0.07080671 0.05659921 0.020159435
0.042851217 0.07782618 0.024033135 -0.07146787 -0.017834384 -0.028548378 0.052973073 0.06145732
-0.004221923 0.06452168 -0.07004659 -0.024157796 0.030654013 -0.05146969 -0.024985448 -0.023603426
-0.03443929 0.019294754 -0.0077373576 -0.061041374 0.0035841903 -0.038195066 0.05135055 0.01197239
-0.06895406 0.025521321 -0.060586415 0.0018869621 -0.036856875 0.07833181 0.058047485 0.049690656
-0.04945494 0.03321573 0.0039752256 -0.0014959411 -0.011266957 -0.012866175 0.012628245 0.07692087
-0.020321969 0.056094784 -0.027795414 -0.0006001991 -0.0761657 -0.028708074 0.011618396 0.06095586
-0.010058368 0.05861821 0.047230422 -0.041325364 0.077369526 -0.041877665 -0.048445925 0.007878233
0.05020904 -0.00062727067 -0.07122032 -0.056433234 0.00096568704 0.045167193 0.074475616 0.06713805
-0.059663035 0.0069149677 -0.026801936 -0.07883906 0.0087363105 0.030311989 -0.059448976 -0.042011593
-0.06451028 0.0492581 -0.07730673 0.049339607 -0.00010713434 -0.07263607 -0.021428205 -0.07423109
0.003462617 -0.06872209 0.032898273 -0.056417845 0.037032813 0.074443474 -0.0725011 -0.034442168
-0.06937411 0.04506176 0.07773951 0.021616 0.049269825 -0.057477932 0.020847464 -0.06918685
-0.034930978 0.059990294 0.006122757 -0.075588636 -0.019238478 -0.005210631 0.027955053 -0.076466046
-0.026959205 0.00024077273 -0.020141846 -0.041791838 -0.008018366 -0.04758227 -0.048705533 0.0038125222

net.4.bias f4 [64]
00000000: 77d5 0f3c fd6f 48bc 10fb 01bd 6142 87bd
00000010: d1f4 78bb d7b0 3e3d cb27 03bd 3daf 73bd
00000020: 2271 5d3d d630 473d 9860 573d e7fb 303d
00000030: d1ab 933d 1a26 6c3d cd54 b4bb 7637 0b3a
00000040: 3fe0 753c 4265 a7ba 8762 563d f1d1 54bd
00000050: 9b77 333b ed05 a2bb 35af 68bd c4e4 97bc
00000060: 5a48 9cbd 54b6 0cbd ab42 dd39 2ac1 4dbc
00000070: 6a0a 943d 2016 4cbd 6a83 1d3d 4fab 66bd
00000080: e2b1 c73c 0d24 973d df14 893d d275 713d
00000090: 3403 9abd c5a3 d4bc e440 9a3d 7e5c 813d
000000a0: 4d06 a1bd bfc1 433d 00a2 953d 2c45 66bd
000000b0: 9b31 bf3b 06de 44bd 18bb c4bb 5df8 753d
000000c0: d0a7 873d fb79 32bb fd16 6c3c e9cc 9f3b
000000d0: 8e39 603d e6ad 89bd 6d9a 5b3d aa84 6fbd
000000e0: 132c 6bbd 1b1a 363d 5a8b f8bb 5a45 e8bc
000000f0: 1dfb 223c 5187 04bd 596a 793d f24c 743d
0.008778921 -0.012233731 -0.031733572 -0.06604458 -0.0037987719 0.046555366 -0.03202037 -0.059493292
0.05406297 0.048630558 0.052582353 0.043208983 0.07210506 0.057653524 -0.005503273 0.00053106935
0.015007078 -0.0012771266 0.052340057 -0.05195803 0.0027384523 -0.004944554 -0.056807715 -0.018541701
-0.076309875 -0.03435357 0.00042202076 -0.012558261 0.07228549 -0.049825788 0.038455404 -0.056315716
0.024376813 0.07379923 0.06693434 0.058950253 -0.07520142 -0.025956998 0.07531908 0.063164696
-0.0786253 0.047792193 0.0730629 -0.05621831 0.005834771 -0.0480633 -0.0060037486 0.06005131
0.066238046 -0.002723335 0.014409778 0.004876722 0.05474239 -0.067226216 0.05361407 -0.058476128
-0.05741508 0.04445849 -0.0075849714 -0.028353382 0.009947565 -0.03235561 0.060892437 0.059643693

net.5.weight f4 [64]
00000000: 77be 7f3f c420 803f 77be 7f3f 77be 7f3f
00000010: c420 803f 77be 7f3f 77be 7f3f 77be 7f3f
00000020: 77be 7f3f c520 803f c420 803f 77be 7f3f
00000030: c420 803f bf20 803f c420 803f 77be 7f3f
00000040: 77be 7f3f 78be 7f3f c520 803f 77be 7f3f
00000050: 77be 7f3f c520 803f 77be 7f3f 77be 7f3f
00000060: 77be 7f3f 77be 7f3f c420 803f c420 803f
00000070: 77be 7f3f 77be 7f3f 77be 7f3f c420 803f
00000080: 77be 7f3f 78be 7f3f c520 803f 77be 7f3f
00000090: 77be 7f3f c520 803f 77be 7f3f c520 803f
000000a0: c520 803f c520 803f 77be 7f3f 77be 7f3f
000000b0: 78be 7f3f 77be 7f3f c520 803f 77be 7f3f
000000c0: c520 803f 77be 7f3f c420 803f c420 803f
000000d0: 78be 7f3f 77be 7f3f c520 803f c520 803f
000000e0: c520 803f 77be 7f3f c520 803f 77be 7f3f
000000f0: c520 803f c520 803f c520 803f c520 803f
0.999 1.0009999 0.999 0.999 1.0009999 0.999 0.999 0.999
0.999 1.001 1.0009999 0.999 1.0009999 1.0009993 1.0009999 0.999
0.999 0.9990001 1.001 0.999 0.999 1.001 0.999 0.999
0.999 0.999 1.0009999 1.0009999 0.999 0.999 0.999 1.0009999
0.999 0.9990001 1.001 0.999 0.999 1.001 0.999 1.001
1.001 1.001 0.999 0.999 0.9990001 0.999 1.001 0.999
1.001 0.999 1.0009999 1.0009999 0.9990001 0.999 1.001 1.001
1.001 0.999 1.001 0.999 1.001 1.001 1.001 1.001

net.5.bias f4 [64]
00000000: 3011 83ba 1c12 833a ff11 833a 3112 83ba
00000010: e311 833a 2612 833a 1412 83ba 7a11 833a
00000020: 8c11 833a 1111 83ba c611 83ba 5912 83ba
00000030: 8311 83ba 7310 833a 7c11 83ba ea0a 833a
00000040: 0d12 83ba a611 83ba 4212 833a 4012 83ba
00000050: c311 833a 8a0e 83ba d410 833a 2712 83ba
00000060: 2c12 833a 5e10 83ba cf11 833a 0a12 833a
00000070: 5e12 83ba 3e12 83ba 4012 83ba 9511 833a
00000080: 2412 83ba da0b 83ba 8111 83ba 0012 83ba
00000090: 3012 83ba 1912 833a 2912 83ba 3512 833a
000000a0: 5812 833a e111 833a 5412 83ba 0b12 833a
000000b0: 9b11 83ba e411 83ba 4712 833a 5512 83ba
000000c0: 5212 833a 3712 83ba 3c12 83ba 1b10 83ba
000000d0: cf11 83ba 2d12 83ba ee11 833a 3512 83ba
000000e0: d111 833a bc11 83ba 5212 833a 5712 83ba
000000f0: 6512 833a 3212 833a 49ec 823a 3f12 833a
-0.0009999629 0.0009999904 0.000999987 -0.0009999928 0.0009999837 0.0009999915 -0.0009999895 0.0009999715
0.0009999736 -0.0009999593 -0.0009999804 -0.0009999975 -0.0009999726 0.0009999409 -0.0009999718 0.000999776
-0.0009999886 -0.0009999766 0.0009999948 -0.0009999946 0.00099998 -0.000999884 0.0009999522 -0.0009999917
0.0009999922 -0.0009999385 0.0009999814 0.0009999883 -0.0009999981 -0.0009999943 -0.0009999946 0.0009999747
-0.0009999913 -0.0009998039 -0.0009999723 -0.0009999871 -0.0009999927 0.00099999 -0.0009999919 0.0009999933
0.0009999974 0.0009999835 -0.0009999969 0.0009999884 -0.0009999754 -0.0009999839 0.0009999954 -0.000999997
0.0009999967 -0.0009999935 -0.0009999941 -0.0009999307 -0.0009999814 -0.0009999924 0.000999985 -0.0009999933
0.0009999817 -0.0009999792 0.0009999967 -0.0009999973 0.0009999989 0.000999993 0.0009988631 0.0009999945

net.5.running_mean f4 [64]
00000000: ff62 0cbc 96d2 8ebb ab9b acbc a980 a73b
00000010: 4f49 6cbc e31d b73a 8356 963b 1eb1 443c
00000020: 5348 ed3b 65e3 0d3b 0268 5b3b 584f efbc
00000030: e664 473d fa86 cf3a a2c9 26bc 997b 913b
00000040: 8fe6 b5bc 9d6f bebb cd13 903c 9360 24bc
00000050: d549 88bc 0ae8 52bb 3077 8fbc 786a fd3c
00000060: 2a0d d7bc 028a 55bd 7016 cd3c cff9 5abd
00000070: d7ba 0d3d 91f1 4a3c 6f7b dc3c ed60 02bd
00000080: 94a7 083d ebc1 4a3c 0da2 a13c c33c 4aba
00000090: ff2a b3bb 7894 823c e1e3 9e3c 7b3a a8bc
000000a0: 16b7 ccbc 17fb a53c 0e3e 283d f59f 47bc
000000b0: 0775 09bd 5861 393c be60 ad3c 291b 3e3d
000000c0: 889d 313d 10eb df3b 1300 4e3d b397 bdba
000000d0: 0819 903b bd66 dd3b 51af b63c 77e1 923b
000000e0: 6a7e d13c 0031 f7ba 5434 30bd 63e9 d4bc
000000f0: 580c 603d e3b9 70bc 545d 823b 10f5 a33a
-0.008568524 -0.0043586 -0.021070322 0.005111773 -0.014421775 0.0013970699 0.0045879497 0.012005119
0.0072412877 0.002165043 0.0033478742 -0.029212639 0.04868021 0.0015833073 -0.010179909 0.004439783
-0.022204665 -0.005811645 0.017587567 -0.010032791 -0.016636768 -0.0032181763 -0.017512888 0.030934557
-0.026251394 -0.052133568 0.025035113 -0.053460892 0.034602012 0.0123866955 0.026914326 -0.031830717
0.03336294 0.012375335 0.019730592 -0.00077147427 -0.005467772 0.015939936 0.01939577 -0.020535698
-0.024989646 0.02026133 0.041074805 -0.012184133 -0.03355887 0.011314712 0.021164294 0.04641262
0.043363124 0.0068334416 0.05029304 -0.0014464766 0.004397515 0.006756632 0.022300394 0.004482444
0.025572974 -0.0018859208 -0.043018654 -0.025990194 0.054699272 -0.014692756 0.0039784107 0.0012508947

net.5.running_var f4 [64]
00000000: 8c4d 6a3f a3fd 6d3f fa54 6b3f f025 683f
00000010: da0e 6a3f 5df1 673f f009 693f 72a2 6c3f
00000020: 084b 693f 7e39 683f 87ab 683f dc9d 693f
00000030: f773 6a3f 6d5e 6c3f f52d 683f 50c6 673f
00000040: 8d90 693f a8a8 6a3f ee9c 693f 2143 6a3f
00000050: cc7d 6d3f cf50 683f 4b9a 6c3f 23db 693f
00000060: 2f37 6a3f 7f61 6c3f ec63 713f 2084 6e3f
00000070: 94fa 683f 0e44 683f 44ef 6a3f 4fee 6b3f
00000080: a7cb 693f 1ef8 683f 5da1 6f3f 6f73 693f
00000090: aee0 673f 5b4a 683f a68e 673f 2f34 693f
000000a0: 2f5a 6d3f f848 683f 30ee 723f 5f2e 683f
000000b0: 4747 753f 8315 6a3f 9c69 683f e356 6e3f
000000c0: d210 693f 45c5 683f 0320 6d3f 0593 693f
000000d0: cd7f 683f 773a 693f 443d 693f afc4 693f
000000e0: f8b0 683f a056 683f d019 6d3f d52a 683f
000000f0: d9bc 6b3f 9be5 673f 5c9c 683f e651 683f
0.9152458 0.92965144 0.9192654 0.9068289 0.9142891 0.90602666 0.9103079 0.9243537
0.91130114 0.90712726 0.9088673 0.912565 0.915832 0.9233158 0.90695125 0.90536976
0.9123619 0.916636 0.9125508 0.9150868 0.92770076 0.90748304 0.9242293 0.9135
0.91490453 0.9233627 0.94293094 0.93170357 0.9100735 0.90728843 0.9177134 0.92160505
0.91326374 0.91003597 0.93605596 0.9119176 0.9057721 0.9073846 0.9045204 0.9109525
0.92715734 0.9073634 0.94894695 0.90695757 0.95811886 0.91439074 0.9078615 0.9310133
0.9104129 0.9092601 0.9262697 0.9123996 0.9082001 0.91104835 0.9110911 0.9131574
0.9089503 0.9075718 0.9261751 0.90690356 0.92085034 0.90584725 0.90863585 0.9074997

net.8.weight f4 [128, 64, 3]
00000000: dcc8 9ebb 0f10 eebc 6852 1fbd 7857 0e3d
00000010: 2853 83bd 2062 623d 42e5 6b3d 54b1 cf3c
00000020: 5b10 cb3a b0d0 aa3b 5013 903d 946c 1fbc
00000030: 3e76 183d 21e0 8c3b d7dc 0abd 2a89 4bbd
00000040: 7793 48bd 5f34 bc3c 4a44 fcbc 0f52 553d
00000050: 571b 7c3c 3222 023c 38bf 403d fbc4 103d
00000060: beb5 adbc 2440 a93b 7667 8f3c dba5 253d
00000070: 6d84 85bd 9991 21bd 8a37 e7bc d39b b1bc
00000080: ba77 a8bc 9701 2b3d 7fab 3bbd d28d cb3c
00000090: 7d16 5fbd abf1 32bd a7d9 10bd e356 323d
000000a0: 2697 643d d994 263d d4fc 2fbd d3ae 083d
000000b0: 8d58 69bc a354 053d aa7b 8d3d d46c 59bd
000000c0: b465 3ebd df2f debc 2be4 063c 5a94 8fbd
000000d0: 03b2 91bc 9b49 6d3d 0b67 16bd ba31 013d
000000e0: 1117 eabb d6c7 54bd 2d79 76bd 3dce 7f3c
000000f0: ca11 2ebc 7841 33bd c515 21bd b8c2 433c
00000100: a759 113d 6c3a 4f3d a7b3 8fbd 2260 733c
00000110: 399b ce3c ebe4 12bd af61 6a3c 0954 183d
00000120: dc6d 08bd 9a6b 5b3d f049 0bbd 2c11 673b
00000130: 9000 0cbd 866c 88bd a8ff 3dbd f4f8 b53b
00000140: db92 8a3d 76bf 64bd 34c9 d8bc e279 6cbd
00000150: 6063 6bbc b3a9 aabc c709 b03c bb2f 33bd
00000160: aaf2 b13c 1db7 773d 56cd 5fbd 28da 233b
00000170: a800 00bd ecba 5e3d 5b54 bc3c e552 2a3c
00000180: 7e76 4b3d 721a 883d c5bf 8a3d ef78 753d
00000190: 1757 903d c4f8 773d c9f6 37bd 9d41 91bd
000001a0: 5ba4 4b3d c4c2 f13a e33f c5bc b540 4e3d
000001b0: 2dad 70bd 503b 403c 1b2e c13c fc2d 283d
000001c0: 5786 4a3d 3d78 c6bc e8e5 76bc 64ed 1bbd
000001d0: 6092 7d3c 94cc c1bc 4757 7e3d 53b8 913d
000001e0: 15ed 163d 7a54 eb3c 5338 b5bb 47a4 1a3b
000001f0: 3e13 51bd d3bc 783d 6cf7 1d3d 77d2 55bc
00000200: cae1 803c ec54 14bb 130f 57bd e967 0ebd
00000210: a966 bebc e6b5 643d ccb2 433c ac35 c73b
00000220: b8ba 19bd 2dd5 8dbc ceac 78bd 80f1 2cbd
00000230: bdc1 34bd 1d40 febc 14f5 08bd 57ee 55bd
00000240: 6022 1639 069e 273d cab4 3e3d 4ae3 abbb
00000250: dfad 0bbc e172 0c3d 6d2a 62bd b028 9739
00000260: a59f 26bd a19f 8d3d 0f66 613d 6ca9 70bc
00000270: f54e 29bc f074 3e3d 6558 81bd 9e23 7fbc
00000280: b0ba 2d3d 2251 9a3b a862 70bd d625 1abd
00000290: 620d 943c 1b42 703c 1838 0c3d 1cc8 4fbd
000002a0: 2495 1fbd 5863 93bd 3159 7b3d c89c 27bd
000002b0: 26f2 7ebd 8ca5 52bd aff2 693c e8f6 6cbc
000002c0: 2fd0 8b3d 23d3 193d e596 ef3c d771 d13c
000002d0: ad39 54bc 4693 5fbd e688 b6bb f559 a03c
000002e0: c15f 6f3d 1097 30bd 3ec7 3ebd 4c77 61bb
000002f0: aeba 0a3c 7474 14bc e2e5 78bd 0c38 c6bc
00000300: 6318 44bd e21b eebc 52e0 463d fcd0 75bd
00000310: 97ab 293d 3bf9 75bd 5a2d 483d 219b 85bd
00000320: 5a6a 083d e3a2 c8bb f6a9 8cbc 6379 053d
00000330: dcb8 babc 1b0b 433d 01ac d23b 7de3 0f3c
00000340: c051 9a3c 0f60 ff3c feaf cfbc 0014 d1bc
00000350: 8c73 83bd 220e 44bd cfd3 afba 2de2 81bd
00000360: 3551 c8bc 126b 653d 3a83 80bd 87e6 3abd
00000370: d3ca 24bd d52c 19bd 085f dfba bbee 30bd
00000380: be79 87bd fd22 403d cc98 433d 4d62 6abd
00000390: c244 05bd 243a 1cbb c881 5e3d 8e26 203d
000003a0: fead efbc 95d9 09bd 1e10 14bd 592f 1a3d
000003b0: 1d00 893d 75ad 44bd 4e27 3abc af74 28bd
000003c0: 65f7 cb3c f602 81bd 3ea2 213d d20b 823d
000003d0: 0a2c 143d b136 1c3d 90bc f1bc 547e 683d
000003e0: a140 70bd 6304 95bd 6221 27bc b017 0bbd
000003f0: 7825 213c 9ce1 e3bb 2dac 3e3d 8a2d 053d
-0.0048457216 -0.029060392 -0.038896948 0.034751385 -0.06412345 0.05526936 0.057591684 0.025353111
0.0015492545 0.005212866 0.070349336 -0.009730477 0.03722214 0.004299179 -0.033902016 -0.049691357
-0.04896876 0.022974191 -0.030794282 0.05208021 0.015387378 0.007942723 0.04705736 0.035344105
-0.021204825 0.005165117 0.017505389 0.040441375 -0.06519399 -0.039445493 -0.028224725 -0.021680748
-0.020564903 0.041749563 -0.04581785 0.024847899 -0.054464806 -0.043687504 -0.03536382 0.043539893
0.05580821 0.040669296 -0.042965725 0.03336985 -0.014242304 0.03255142 0.06908353 -0.053082302
-0.04648371 -0.027122436 0.00823311 -0.07010718 -0.017785078 0.057931524 -0.036719363 0.031541564
-0.007143863 -0.05194839 -0.060174156 0.015613136 -0.010624358 -0.043763608 -0.0393274 0.01194828
0.03548589 0.050592825 -0.07016688 0.014854463 0.0252205 -0.035862844 0.014305516 0.037189517
-0.033307895 0.053569414 -0.03400606 0.0035258038 -0.034180224 -0.06661324 -0.04638639 0.005553359
0.06766292 -0.055846654 -0.026463129 -0.057733424 -0.014366955 -0.020832872 0.021489037 -0.04374669
0.021722157 0.060477365 -0.054639183 0.0025001857 -0.031250626 0.05437748 0.022989443 0.01039574
0.04967355 0.06645669 0.067748584 0.059929784 0.07047861 0.060539976 -0.044913087 -0.07092593
0.04971729 0.0018444885 -0.024078315 0.05035468 -0.058758903 0.011732891 0.023581555 0.04105948
0.049444523 -0.024227256 -0.015069462 -0.03806819 0.015476793 -0.02365712 0.062094953 0.07115235
0.036847193 0.028726805 -0.005530396 0.0023596452 -0.05104374 0.06072695 0.038566038 -0.013050667
0.015732665 -0.0022633625 -0.05250461 -0.034767065 -0.023242312 0.055837534 0.011944484 0.0060793962
-0.037531585 -0.017313564 -0.060711674 -0.0422225 -0.044130076 -0.031036431 -0.03343685 -0.05222925
0.0001431792 0.040922187 0.046559133 -0.005245601 -0.008525341 0.034289245 -0.05521624 0.0002883128
-0.040679593 0.069152124 0.05502897 -0.014688831 -0.010333766 0.04649824 -0.06315688 -0.015572457
0.042414367 0.004709379 -0.058687836 -0.03763374 0.018072788 0.014664198 0.034233183 -0.05072795
-0.03896059 -0.07196683 0.061364356 -0.040921003 -0.06224265 -0.05142741 0.014279052 -0.014463164
0.06826817 0.03755487 0.029246757 0.025566978 -0.012953204 -0.05458381 -0.005570519 0.019574145
0.058440927 -0.043112814 -0.04657673 -0.0034403382 0.0084673595 -0.009060968 -0.06076611 -0.024196647
-0.04787482 -0.02906603 0.048553772 -0.060013756 0.041423406 -0.060052138 0.048871376 -0.06523729
0.03330455 -0.0061229332 -0.017170887 0.032586467 -0.022793226 0.047618013 0.006429196 0.008782265
0.01883781 0.031173734 -0.025352474 -0.025522232 -0.06418523 -0.04786504 -0.0013414564 -0.06341968
-0.024452785 0.056010313 -0.062750295 -0.045630004 -0.04023249 -0.03739627 -0.0017041871 -0.04319642
-0.06615017 0.046908367 0.04775314 -0.057222653 -0.032536276 -0.0023838365 0.054322988 0.03909927
-0.02925777 -0.033654768 -0.036148183 0.03764281 0.06689475 -0.048016984 -0.01136191 -0.041126903
0.02489824 -0.06299393 0.039461367 0.06349911 0.03617481 0.038138095 -0.029508859 0.0567611
-0.058655385 -0.07276227 -0.01020083 -0.033958137 0.009835593 -0.006954385 0.04655092 0.032514133

net.8.bias f4 [128]
00000000: b65b 363d dee8 7a3c 4504 faba 11ce 423d
00000010: 649e 23bc 0953 a2b9 2fdc 0dbd 0733 dbbc
00000020: f35c 7f3b 24de 2c3d 0877 db3b 7d47 503c
00000030: f6f2 3ebd 7038 eb3c a27d 1cbd 7ff3 27bd
00000040: a7a6 0c3c 9a2a 833c 39ed 583d acca 27bd
00000050: a75c 533b eb94 38bd f034 58bc 6d1f 29bd
00000060: ac3b 80bd a875 2bbb bd11 90bd 9588 6bbd
00000070: 75b3 7d3c de3e 213d 5f44 7ebd 780b df3b
00000080: 3277 8ebd 477e 753d 4538 3fbd 256e d8bc
00000090: 2ac1 84bd f338 0a3c 9c2c 5c3d 365b c0bb
000000a0: fb7a 823d 978b b4bc 574d 82bd bb13 a6bb
000000b0: 7de2 88bd fac1 1e3d 8590 80bc 3b28 8abd
000000c0: 217d fc3c 5fe1 afbc 5aee 83bd 26de 0dbd
000000d0: 6ddb 243c 1cc1 ab3c 9b46 84bd 6413 a4bc
000000e0: 3c9c 2d3c 3644 2e3d 600d 32bd f458 723d
000000f0: ba73 12bd 43af fd3c 188a 3bbc 257b 7f3d
00000100: 79ce a6bc cb84 f8bc f15f 053d 2e86 4dbd
00000110: dff1 8b3c 8b36 913d eb64 793d dc07 963c
00000120: 9196 94bc 1706 27bd 515d a1b9 7fce 1ebd
00000130: 7733 d9bc 1971 7f3c 054e 8cbd 8c62 b3bc
00000140: fa43 42bd 8436 30bd 3be0 213d 35d2 0bbc
00000150: 8e30 0abd e004 7f3c c7f5 f03b aa0d 8abd
00000160: 0972 603d 54e8 67bd 7f0d a53c 3050 25ba
00000170: 3849 56bd 7ba3 11bd 4e84 8dbd 77bb 693c
00000180: 7446 f63c 0465 2a3d a46c 5abd 463b 66bd
00000190: 7d0c 85bd 5aef 98bc 6342 383d 23e7 56bd
000001a0: e9b4 d33c 5c1b 62bd c670 5b3b f78d f3bc
000001b0: f0e2 803d 0a9a 9ab8 41c4 f6bc f014 2c3d
000001c0: 47e6 463c 0430 5dbd 90da 85bd a659 7f3d
000001d0: 9b8e 4b3d fcbf 353d a6cc 803d 9fdc 803c
000001e0: f7a3 d8bc 5d83 1b3c 0300 8f3c 1b90 31bd
000001f0: f6d7 15bd 7b05 5fbd 2145 623d 123f 13bb
0.044521056 0.015314309 -0.0019074759 0.0475598 -0.009986494 -0.00030960914 -0.03463381 -0.02675773
0.0038965314 0.042204037 0.0066975392 0.012712357 -0.046618424 0.028713435 -0.03820575 -0.0410037
0.008584655 0.016011525 0.05296061 -0.040964767 0.003225127 -0.045063894 -0.013196215 -0.041289736
-0.062613815 -0.0026162658 -0.07034633 -0.0575033 0.01548468 0.039366595 -0.062076923 0.006806787
-0.069563285 0.05993488 -0.046684522 -0.026419709 -0.064821556 0.008436429 0.05375348 -0.005870248
0.06371113 -0.022039218 -0.06362408 -0.00506827 -0.06683824 0.03875921 -0.015693912 -0.067459546
0.030821385 -0.02146977 -0.06441946 -0.034635685 0.010062081 0.020966105 -0.064587794 -0.020028777
0.010596331 0.04254552 -0.043469787 0.059166864 -0.035754897 0.03096736 -0.011446498 0.0623733
-0.020362126 -0.030336758 0.0325622 -0.05017679 0.017083107 0.07090481 0.06088726 0.018314295
-0.018138202 -0.040777292 -0.0003077784 -0.03877115 -0.026513798 0.015590929 -0.068508185 -0.021897577
-0.04742811 -0.04302074 0.039520483 -0.008534004 -0.03373771 0.015565127 0.0073535177 -0.067408875
0.054796252 -0.05661805 0.020148037 -0.00063061994 -0.05231592 -0.035556298 -0.06910001 0.0142658865
0.030062892 0.041600242 -0.053326264 -0.05620887 -0.064965226 -0.01866882 0.044985186 -0.052466523
0.0258431 -0.055201873 0.0033483966 -0.02973078 0.06293285 -7.371984e-05 -0.030122878 0.042012155
0.012139863 -0.05400087 -0.06535828 0.062341355 0.049696546 0.044372544 0.062890336 0.0157302
-0.026445372 0.009491769 0.01745606 -0.04335032 -0.03658291 -0.054448586 0.055241708 -0.0022468013

net.9.weight f4 [128]
00000000: 77be 7f3f c520 803f c520 803f 77be 7f3f
00000010: 77be 7f3f 77be 7f3f 77be 7f3f 77be 7f3f
00000020: c520 803f c420 803f c520 803f 77be 7f3f
00000030: c520 803f c320 803f c420 803f c420 803f
00000040: c520 803f 77be 7f3f c420 803f 77be 7f3f
00000050: c520 803f 77be 7f3f 77be 7f3f 77be 7f3f
00000060: 77be 7f3f 77be 7f3f c420 803f 77be 7f3f
00000070: c520 803f c320 803f 78be 7f3f 77be 7f3f
00000080: bd20 803f c420 803f c520 803f 77be 7f3f
00000090: 77be 7f3f 77be 7f3f 77be 7f3f c520 803f
000000a0: c420 803f 77be 7f3f c420 803f 77be 7f3f
000000b0: c420 803f 77be 7f3f 77be 7f3f c520 803f
000000c0: 77be 7f3f c520 803f 77be 7f3f c420 803f
000000d0: 77be 7f3f c520 803f c520 803f 77be 7f3f
000000e0: c520 803f c520 803f c520 803f c520 803f
000000f0: c520 803f c520 803f 77be 7f3f 77be 7f3f
00000100: 77be 7f3f 77be 7f3f 77be 7f3f c520 803f
00000110: 8bbe 7f3f c520 803f 77be 7f3f c520 803f
00000120: 77be 7f3f 77be 7f3f c520 803f 7dbe 7f3f
00000130: 77be 7f3f 77be 7f3f c520 803f c520 803f
00000140: c520 803f c320 803f c520 803f c420 803f
00000150: c520 803f c520 803f 77be 7f3f 77be 7f3f
00000160: c520 803f c520 803f c420 803f c420 803f
00000170: c420 803f c520 803f c520 803f 77be 7f3f
00000180: c520 803f 77be 7f3f c520 803f c520 803f
00000190: c420 803f 77be 7f3f 78be 7f3f c520 803f
000001a0: 77be 7f3f c420 803f 77be 7f3f 77be 7f3f
000001b0: 90be 7f3f 77be 7f3f 77be 7f3f c420 803f
000001c0: c520 803f 77be 7f3f c420 803f c420 803f
000001d0: 77be 7f3f c520 803f 78be 7f3f c520 803f
000001e0: c520 803f c520 803f c520 803f 78be 7f3f
000001f0: c520 803f 77be 7f3f c520 803f c520 803f
0.999 1.001 1.001 0.999 0.999 0.999 0.999 0.999
1.001 1.0009999 1.001 0.999 1.001 1.0009998 1.0009999 1.0009999
1.001 0.999 1.0009999 0.999 1.001 0.999 0.999 0.999
0.999 0.999 1.0009999 0.999 1.001 1.0009998 0.9990001 0.999
1.0009991 1.0009999 1.001 0.999 0.999 0.999 0.999 1.001
1.0009999 0.999 1.0009999 0.999 1.0009999 0.999 0.999 1.001
0.999 1.001 0.999 1.0009999 0.999 1.001 1.001 0.999
1.001 1.001 1.001 1.001 1.001 1.001 0.999 0.999
0.999 0.999 0.999 1.001 0.9990012 1.001 0.999 1.001
0.999 0.999 1.001 0.9990004 0.999 0.999 1.001 1.001
1.001 1.0009998 1.001 1.0009999 1.001 1.001 0.999 0.999
1.001 1.001 1.0009999 1.0009999 1.0009999 1.001 1.001 0.999
1.001 0.999 1.001 1.001 1.0009999 0.999 0.9990001 1.001
0.999 1.0009999 0.999 0.999 0.9990015 0.999 0.999 1.0009999
1.001 0.999 1.0009999 1.0009999 0.999 1.001 0.9990001 1.001
1.001 1.001 1.001 0.9990001 1.001 0.999 1.001 1.001

net.9.bias f4 [128]
00000000: 1912 83ba 4a12 833a 3812 833a 3f12 83ba
00000010: ea11 83ba 4712 83ba 5312 83ba 5f12 83ba
00000020: 3f12 833a ee11 833a 0912 833a 2b12 833a
00000030: 4512 833a d411 83ba 4112 833a db10 833a
00000040: 2912 833a 2512 83ba 3d0d 83ba 4e12 83ba
00000050: 3112 833a 0012 83ba 4512 83ba fa11 833a
00000060: 4612 83ba 4c12 833a b611 833a 5d12 83ba
00000070: d40f 833a 3c12 83ba 3212 833a 4d12 83ba
00000080: 3912 833a f111 833a 5612 833a 6512 83ba
00000090: 4c12 83ba 5612 83ba 5212 83ba 4a12 833a
000000a0: ed0f 83ba 3812 83ba 5312 833a 5f12 83ba
000000b0: 3312 833a 4c12 83ba d211 83ba 2e12 833a
000000c0: 5c12 83ba 2112 833a 3e12 83ba 4712 833a
000000d0: 5b12 83ba 3312 83ba 1c12 833a 5212 83ba
000000e0: 0d12 833a 1f12 833a 5512 833a 7c0d 833a
000000f0: 4812 833a d210 83ba 4e12 83ba db11 83ba
00000100: 4d12 83ba 5a12 83ba 4912 83ba da0e 833a
00000110: f111 833a 5512 833a 2b12 83ba 0f12 833a
00000120: 5e12 83ba e911 83ba 3a12 833a 0811 83ba
00000130: 4b12 83ba e511 83ba 0912 833a ee11 833a
00000140: 2c12 833a 9111 833a 6012 833a 0e12 833a
00000150: 3f12 83ba 6011 833a 0b12 83ba 4212 83ba
00000160: 4912 833a 4312 833a 9e11 833a 3712 833a
00000170: 3812 833a 4b12 833a 0f12 833a 5a12 83ba
00000180: 5f12 833a e711 83ba b510 833a 1f12 833a
00000190: 8011 833a 3812 83ba 1812 83ba f911 833a
000001a0: 2f12 833a 1b12 833a 5412 83ba 2212 83ba
000001b0: d011 833a 6412 83ba 5b12 83ba 7b10 833a
000001c0: 5712 833a 4912 83ba 5c11 833a f711 833a
000001d0: 3112 83ba 5012 833a 7e11 83ba 2712 833a
000001e0: 5f12 833a 1612 833a 4a12 833a 0ff9 823a
000001f0: 4b12 833a 5612 83ba b911 833a 3e12 83ba
-0.00099999 0.0009999957 0.0009999936 -0.0009999945 -0.0009999846 -0.0009999954 -0.0009999968 -0.0009999982
0.0009999945 0.000999985 0.0009999882 0.0009999921 0.0009999952 -0.000999982 0.0009999947 0.000999953
0.0009999919 -0.0009999914 -0.0009998452 -0.0009999962 0.0009999928 -0.0009999871 -0.0009999952 0.0009999864
-0.0009999953 0.000999996 0.0009999785 -0.000999998 0.0009999224 -0.0009999941 0.000999993 -0.0009999961
0.0009999938 0.0009999854 0.0009999971 -0.0009999989 -0.000999996 -0.0009999971 -0.0009999967 0.0009999957
-0.0009999253 -0.0009999936 0.0009999968 -0.0009999982 0.0009999931 -0.000999996 -0.0009999818 0.0009999925
-0.0009999978 0.000999991 -0.0009999943 0.0009999954 -0.0009999977 -0.0009999931 0.0009999904 -0.0009999967
0.0009999886 0.0009999907 0.000999997 0.0009998525 0.0009999955 -0.000999952 -0.0009999962 -0.0009999828
-0.0009999961 -0.0009999976 -0.0009999956 0.0009998933 0.0009999854 0.000999997 -0.0009999921 0.0009999889
-0.0009999981 -0.0009999844 0.0009999939 -0.0009999583 -0.0009999959 -0.000999984 0.0009999882 0.000999985
0.0009999922 0.0009999742 0.0009999983 0.0009999888 -0.0009999945 0.0009999685 -0.0009999884 -0.0009999948
0.0009999956 0.0009999949 0.0009999757 0.0009999935 0.0009999936 0.0009999959 0.0009999889 -0.0009999976
0.0009999982 -0.0009999842 0.0009999486 0.0009999907 0.0009999722 -0.0009999936 -0.0009999899 0.0009999863
0.0009999926 0.0009999903 -0.0009999969 -0.0009999911 0.0009999815 -0.0009999988 -0.0009999977 0.0009999418
0.0009999973 -0.0009999956 0.000999968 0.0009999861 -0.0009999928 0.0009999964 -0.000999972 0.0009999917
0.0009999982 0.0009999897 0.0009999957 0.0009992438 0.0009999959 -0.0009999971 0.0009999789 -0.0009999943

net.9.running_mean f4 [128]
00000000: cb08 22bc e33d 7d3c 3687 96bc f6d1 883b
00000010: 7d59 a8bb 6bb6 be3b 2f65 543c ed82 76bc
00000020: 8732 013d 052f f8bb 2d5e a8bc 9ffa f7bb
00000030: a20c 54bc 4b54 703c 0acc f9bc 1f0a 5dbd
00000040: a285 db3c fbe5 1abd 56c8 2c3c d082 1bbd
00000050: bbd3 113d ddd8 53bc c5c8 5cba 6513 d2bb
00000060: a719 bbbb 45c0 f8bb 13c4 3fbd 3e7b b1ba
00000070: 2b7c 0d3d ff00 703c bd8d 4dbc 57e7 143d
00000080: 987d dbbc d2ca 32bd fbae 1abd b8e2 65bd
00000090: 5023 e6bc 8207 da3b f7e9 f4bb f84f 043d
000000a0: cc99 3d3a 0a5f 23bd eb7b bc3a d5b9 f6bc
000000b0: 7579 d8bc 030f 133c b221 a8bc 95e7 513a
000000c0: bc69 a4bc 9f17 3dbc a77a 693c c021 83bc
000000d0: facd 2ebd aa6d d8bb 2fd6 403c fb5e ae3c
000000e0: 42a6 313c 1b5e b43b 5116 3d3c 9f6f 0ebc
000000f0: 52d7 b4bc 75f4 b139 fe6f 9bbb 92d7 e6bc
00000100: 5a02 d6ba dca0 1cbc b314 4dbc 0d70 55bc
00000110: bb49 c03c b566 183d 9515 3d3d aab9 9abc
00000120: 3702 0e3d bab7 fbbb 915d ae3c 2f55 003d
00000130: 8258 c43c 2b25 19bc 5ba3 6d3c 17d7 95bc
00000140: 3be4 d13c f306 9abc dab9 f73b 5331 d93c
00000150: 03ad 3bbb 5543 5c3c 3aa1 513c e36a 1e3c
00000160: 5cb7 2e3c 237a 55bc f244 2f3d 2b85 b2bc
00000170: d3d2 b13c 471b 093c 15c5 f1bb 129d 18bd
00000180: f876 683b e769 183d 23f9 e23b b20e efba
00000190: b76b debb 1e32 a93b f740 053b 409c adbc
000001a0: 1218 b9bb a3cf b53c ce16 3abd f19c b8ba
000001b0: 8a9b 6ebd bdc0 23bc c2d5 56bc 3533 d3bc
000001c0: 6b80 13bd 7e5f a7bb 4318 1ebc 7006 31bc
000001d0: df48 d5bb 131d 08bd ffaa fc3c aad6 983b
000001e0: 438b f4bc cce7 9c3c 0776 853c ed1d 0f3d
000001f0: 2fa2 5f3c 3ba8 a8bc b056 8f3c da2c 13bd
-0.009889792 0.0154566495 -0.01837502 0.00417542 -0.005137621 0.0058200858 0.012963577 -0.015045864
0.031542327 -0.0075739645 -0.020552719 -0.007567718 -0.012942465 0.0146685345 -0.030492801 -0.05396473
0.02679712 -0.037816983 0.010545811 -0.03796655 0.035602313 -0.012930122 -0.0008422251 -0.0064110034
-0.005709845 -0.0075912797 -0.04681785 -0.0013540757 0.034542244 0.014648675 -0.012546 0.036353435
-0.026793286 -0.043650456 -0.03776453 -0.05612442 -0.02809301 0.006653727 -0.00747418 0.032302827
0.00072326954 -0.03988556 0.0014380192 -0.030117908 -0.026425103 0.008975747 -0.02052388 0.00080072257
-0.02006995 -0.011541276 0.014250434 -0.016007304 -0.042676903 -0.00660487 0.011769815 0.021285525
0.010842862 0.0055043823 0.011540965 -0.008693605 -0.022075329 0.00033942205 -0.004743575 -0.028178964
-0.0016327605 -0.009559836 -0.012517142 -0.013027203 0.023472657 0.037207324 0.04616316 -0.01888736
0.03467008 -0.007681814 0.02128485 0.031331237 0.023967985 -0.00934724 0.014504279 -0.01829104
0.025621524 -0.018802142 0.007559997 0.026512777 -0.0028637059 0.013443788 0.012794787 0.0096690385
0.0106638335 -0.013029608 0.04279036 -0.021792015 0.021706974 0.00836832 -0.0073782303 -0.03725917
0.0035471302 0.03721037 0.006926672 -0.0018238632 -0.006787743 0.005163445 0.0020332912 -0.02119267
-0.0056486214 0.022193735 -0.045431904 -0.0014084858 -0.058253802 -0.009994683 -0.013112487 -0.025781253
-0.03601114 -0.005107819 -0.009649339 -0.0108047575 -0.006508931 -0.033230852 0.030843256 0.004664262
-0.029851561 0.019153498 0.016291631 0.03494065 0.013649507 -0.020588031 0.01749739 -0.035931446

net.9.running_var f4 [128]
00000000: 6221 6a3f ca44 693f 4ab2 693f 924e 6c3f
00000010: a56d 693f df1a 693f feda 683f ef88 693f
00000020: 3223 693f 9b8f 683f 6e33 6c3f a141 6a3f
00000030: 5fd2 6e3f 9c6c 693f 7c99 6d3f 6f44 6c3f
00000040: 3ae4 6a3f 8eb3 693f 727f 693f efe1 6d3f
00000050: b019 6d3f 02d5 693f 326b 693f 63d0 6d3f
00000060: 9f1c 693f fafd 693f 2203 6b3f 8c17 693f
00000070: 33ae 6b3f 84c0 693f 6902 6b3f 65de 6c3f
00000080: 6b6a 693f ebaf 6a3f a079 6c3f 462f 6e3f
00000090: d7e9 683f a38e 693f 88eb 6b3f 58bb 693f
000000a0: 80e6 693f 4936 693f 40b7 673f bff7 683f
000000b0: 1e02 683f ad6a 6a3f 23fc 683f a14b 6c3f
000000c0: 4bcb 693f 9385 693f 9596 6c3f 3ef5 6d3f
000000d0: 9ec9 6d3f 25ab 693f 28a9 693f c06b 693f
000000e0: cb0f 693f dc06 6b3f 905b 693f 4229 683f
000000f0: 6596 6c3f 4e5b 693f fca5 683f c1cc 693f
00000100: c51e 6a3f 4648 693f 394e 6a3f 49ea 6a3f
00000110: 6c8c 693f da7a 693f e4c7 683f 9b34 6a3f
00000120: aee3 713f 8ab8 683f 923e 6a3f 1075 6a3f
00000130: 0cc7 6f3f 72a7 6a3f 7c7e 683f 512b 693f
00000140: d1c5 6d3f 8a1f 6b3f 491e 693f a95d 693f
00000150: aa4f 6c3f aa45 6d3f 15f6 683f 0fd7 6b3f
00000160: 78b1 6c3f 2f0a 6a3f b593 693f 6143 683f
00000170: bb40 6e3f 12c5 683f eb4f 693f 0915 6a3f
00000180: cace 6a3f 3316 6c3f 8ad1 683f aa3d 6a3f
00000190: ddb3 683f 4b65 6b3f 161c 6c3f a839 6b3f
000001a0: 1195 6a3f 8582 6a3f 85b1 6b3f b791 6a3f
000001b0: dc9b 6d3f b9f8 6a3f 007b 6f3f c73b 743f
000001c0: 53f1 6b3f e442 693f 5a56 693f 1470 6a3f
000001d0: 6639 693f e7d5 6b3f 160a 6d3f 43ac 693f
000001e0: 4d9d 6e3f f629 6a3f 9c50 693f eab9 6a3f
000001f0: 748a 6c3f 280b 6b3f ca2f 693f b62c 6b3f
0.9145719 0.9112059 0.9128767 0.9230739 0.9118293 0.9105663 0.90959156 0.9122457
0.9106933 0.90844125 0.92265975 0.9150639 0.9328975 0.9118135 0.92812324 0.9229192
0.91754496 0.91289604 0.9121009 0.9292287 0.9261732 0.9134065 0.9117919 0.928961
0.910593 0.9140316 0.91801655 0.91051555 0.9206268 0.9130938 0.9180055 0.9252685
0.91178006 0.9167468 0.92373085 0.93040884 0.9098181 0.9123327 0.9215627 0.9130149
0.9136734 0.9109846 0.9051399 0.9100303 0.9062823 0.91569024 0.9100973 0.923029
0.91325825 0.91219443 0.9241727 0.92952335 0.9288577 0.9127677 0.91273737 0.9118004
0.91039723 0.9180734 0.9115534 0.90687954 0.92416984 0.91154945 0.9087827 0.91328055
0.914532 0.91125906 0.9152561 0.9176374 0.9122989 0.9120308 0.9093001 0.9148652
0.94488037 0.90906584 0.91501725 0.91584873 0.93663096 0.9166175 0.90818 0.9108172
0.9287997 0.91845 0.91061836 0.9115854 0.9230906 0.92684424 0.9100049 0.9212503
0.92458296 0.9142179 0.9124101 0.9072781 0.9306752 0.90925705 0.9113757 0.9143835
0.91721785 0.92221373 0.9094473 0.9150034 0.9089945 0.91951436 0.92230356 0.9188485
0.9163371 0.91605407 0.9206775 0.91628593 0.9281595 0.9178577 0.9354706 0.95403713
0.92165107 0.9111769 0.9114739 0.9157727 0.9110321 0.92123264 0.92593515 0.91278476
0.9320877 0.9147028 0.91138625 0.9168993 0.9239876 0.918139 0.91088545 0.918651
